…
iopub.status.busy":"2024-11-20T18:28:07.382362Z","iopub.execute_input":"2024-11-20T18:28:07.383374Z","iopub.status.idle":"2024-11-20T18:28:07.613314Z","shell.execute_reply.started":"2024-11-20T18:28:07.383322Z","shell.execute_reply":"2024-11-20T18:28:07.612427Z"}},"outputs":[{"name":"stdout","text":"==========================================================================================\nLayer (type:depth-idx)                   Output Shape              Param #\n==========================================================================================\nSequential: 1-1                        [-1, 512, 7, 7]           --\n|    Conv2d: 2-1                       [-1, 64, 224, 224]        1,792\n|    ReLU: 2-2                         [-1, 64, 224, 224]        --\n|    Conv2d: 2-3                       [-1, 64, 224, 224]        36,928\n|    ReLU: 2-4                         [-1, 64, 224, 224]        --\n|    MaxPool2d: 2-5                    [-1, 64, 112, 112]        --\n|    Conv2d: 2-6                       [-1, 128, 112, 112]       73,856\n|    ReLU: 2-7                         [-1, 128, 112, 112]       --\n|    Conv2d: 2-8                       [-1, 128, 112, 112]       147,584\n|    ReLU: 2-9                         [-1, 128, 112, 112]       --\n|    MaxPool2d: 2-10                   [-1, 128, 56, 56]         --\n|    Conv2d: 2-11                      [-1, 256, 56, 56]         295,168\n|    ReLU: 2-12                        [-1, 256, 56, 56]         --\n|    Conv2d: 2-13                      [-1, 256, 56, 56]         590,080\n|    ReLU: 2-14                        [-1, 256, 56, 56]         --\n|    Conv2d: 2-15                      [-1, 256, 56, 56]         590,080\n|    ReLU: 2-16                        [-1, 256, 56, 56]         --\n|    Conv2d: 2-17                      [-1, 256, 56, 56]         590,080\n|    ReLU: 2-18                        [-1, 256, 56, 56]         --\n|    MaxPool2d: 2-19                   [-1, 256, 28, 28]         --\n|    Conv2d: 2-20                      [-1, 512, 28, 28]         1,180,160\n|    ReLU: 2-21                        [-1, 512, 28, 28]         --\n|    Conv2d: 2-22                      [-1, 512, 28, 28]         2,359,808\n|    ReLU: 2-23                        [-1, 512, 28, 28]         --\n|    Conv2d: 2-24                      [-1, 512, 28, 28]         2,359,808\n|    ReLU: 2-25                        [-1, 512, 28, 28]         --\n|    Conv2d: 2-26                      [-1, 512, 28, 28]         2,359,808\n|    ReLU: 2-27                        [-1, 512, 28, 28]         --\n|    MaxPool2d: 2-28                   [-1, 512, 14, 14]         --\n|    Conv2d: 2-29                      [-1, 512, 14, 14]         2,359,808\n|    ReLU: 2-30                        [-1, 512, 14, 14]         --\n|    Conv2d: 2-31                      [-1, 512, 14, 14]         2,359,808\n|    ReLU: 2-32                        [-1, 512, 14, 14]         --\n|    Conv2d: 2-33                      [-1, 512, 14, 14]         2,359,808\n|    ReLU: 2-34                        [-1, 512, 14, 14]         --\n|    Conv2d: 2-35                      [-1, 512, 14, 14]         2,359,808\n|    ReLU: 2-36                        [-1, 512, 14, 14]         --\n|    MaxPool2d: 2-37                   [-1, 512, 7, 7]           --\nAdaptiveAvgPool2d: 1-2                 [-1, 512, 7, 7]           --\nSequential: 1-3                        [-1, 1000]                --\n|    Linear: 2-38                      [-1, 4096]                102,764,544\n|    ReLU: 2-39                        [-1, 4096]                --\n|    Dropout: 2-40                     [-1, 4096]                --\n|    Linear: 2-41                      [-1, 4096]                16,781,312\n|    ReLU: 2-42                        [-1, 4096]                --\n|    Dropout: 2-43                     [-1, 4096]                --\n|    Linear: 2-44                      [-1, 1000]                4,097,000\n==========================================================================================\nTotal params: 143,667,240\nTrainable params: 143,667,240\nNon-trainable params: 0\nTotal mult-adds (G): 19.78\n==========================================================================================\nInput size (MB): 0.57\nForward/backward pass size (MB): 113.38\nParams size (MB): 548.05\nEstimated Total Size (MB): 662.00\n==========================================================================================\n==========================================================================================\nLayer (type:depth-idx)                   Output Shape              Param #\n==========================================================================================\nConv2d: 1-1                            [-1, 64, 112, 112]        9,408\nBatchNorm2d: 1-2                       [-1, 64, 112, 112]        128\nReLU: 1-3                              [-1, 64, 112, 112]        --\nMaxPool2d: 1-4                         [-1, 64, 56, 56]          --\nSequential: 1-5                        [-1, 256, 56, 56]         --\n|    Bottleneck: 2-1                   [-1, 256, 56, 56]         --\n|    |    Conv2d: 3-1                  [-1, 64, 56, 56]          4,096\n|    |    BatchNorm2d: 3-2             [-1, 64, 56, 56]          128\n|    |    ReLU: 3-3                    [-1, 64, 56, 56]          --\n|    |    Conv2d: 3-4                  [-1, 64, 56, 56]          36,864\n|    |    BatchNorm2d: 3-5             [-1, 64, 56, 56]          128\n|    |    ReLU: 3-6                    [-1, 64, 56, 56]          --\n|    |    Conv2d: 3-7                  [-1, 256, 56, 56]         16,384\n|    |    BatchNorm2d: 3-8             [-1, 256, 56, 56]         512\n|    |    Sequential: 3-9              [-1, 256, 56, 56]         16,896\n|    |    ReLU: 3-10                   [-1, 256, 56, 56]         --\n|    Bottleneck: 2-2                   [-1, 256, 56, 56]         --\n|    |    Conv2d: 3-11                 [-1, 64, 56, 56]          16,384\n|    |    BatchNorm2d: 3-12            [-1, 64, 56, 56]          128\n|    |    ReLU: 3-13                   [-1, 64, 56, 56]          --\n|    |    Conv2d: 3-14                 [-1, 64, 56, 56]          36,864\n|    |    BatchNorm2d: 3-15            [-1, 64, 56, 56]          128\n|    |    ReLU: 3-16                   [-1, 64, 56, 56]          --\n|    |    Conv2d: 3-17                 [-1, 256, 56, 56]         16,384\n|    |    BatchNorm2d: 3-18            [-1, 256, 56, 56]         512\n|    |    ReLU: 3-19                   [-1, 256, 56, 56]         --\n|    Bottleneck: 2-3                   [-1, 256, 56, 56]         --\n|    |    Conv2d: 3-20                 [-1, 64, 56, 56]          16,384\n|    |    BatchNorm2d: 3-21            [-1, 64, 56, 56]          128\n|    |    ReLU: 3-22                   [-1, 64, 56, 56]          --\n|    |    Conv2d: 3-23                 [-1, 64, 56, 56]          36,864\n|    |    BatchNorm2d: 3-24            [-1, 64, 56, 56]          128\n|    |    ReLU: 3-25                   [-1, 64, 56, 56]          --\n|    |    Conv2d: 3-26                 [-1, 256, 56, 56]         16,384\n|    |    BatchNorm2d: 3-27            [-1, 256, 56, 56]         512\n|    |    ReLU: 3-28                   [-1, 256, 56, 56]         --\nSequential: 1-6                        [-1, 512, 28, 28]         --\n|    Bottleneck: 2-4                   [-1, 512, 28, 28]         --\n|    |    Conv2d: 3-29                 [-1, 128, 56, 56]         32,768\n|    |    BatchNorm2d: 3-30            [-1, 128, 56, 56]         256\n|    |    ReLU: 3-31                   [-1, 128, 56, 56]         --\n|    |    Conv2d: 3-32                 [-1, 128, 28, 28]         147,456\n|    |    BatchNorm2d: 3-33            [-1, 128, 28, 28]         256\n|    |    ReLU: 3-34                   [-1, 128, 28, 28]         --\n|    |    Conv2d: 3-35                 [-1, 512, 28, 28]         65,536\n|    |    BatchNorm2d: 3-36            [-1, 512, 28, 28]         1,024\n|    |    Sequential: 3-37             [-1, 512, 28, 28]         132,096\n|    |    ReLU: 3-38                   [-1, 512, 28, 28]         --\n|    Bottleneck: 2-5                   [-1, 512, 28, 28]         --\n|    |    Conv2d: 3-39                 [-1, 128, 28, 28]         65,536\n|    |    BatchNorm2d: 3-40            [-1, 128, 28, 28]         256\n|    |    ReLU: 3-41                   [-1, 128, 28, 28]         --\n|    |    Conv2d: 3-42                 [-1, 128, 28, 28]         147,456\n|    |    BatchNorm2d: 3-43            [-1, 128, 28, 28]         256\n|    |    ReLU: 3-44                   [-1, 128, 28, 28]         --\n|    |    Conv2d: 3-45                 [-1, 512, 28, 28]         65,536\n|    |    BatchNorm2d: 3-46            [-1, 512, 28, 28]         1,024\n|    |    ReLU: 3-47                   [-1, 512, 28, 28]         --\n|    Bottleneck: 2-6                   [-1, 512, 28, 28]         --\n|    |    Conv2d: 3-48                 [-1, 128, 28, 28]         65,536\n|    |    BatchNorm2d: 3-49            [-1, 128, 28, 28]         256\n|    |    ReLU: 3-50                   [-1, 128, 28, 28]         --\n|    |    Conv2d: 3-51                 [-1, 128, 28, 28]         147,456\n|    |    BatchNorm2d: 3-52            [-1, 128, 28, 28]         256\n|    |    ReLU: 3-53                   [-1, 128, 28, 28]         --\n|    |    Conv2d: 3-54                 [-1, 512, 28, 28]         65,536\n|    |    BatchNorm2d: 3-55            [-1, 512, 28, 28]         1,024\n|    |    ReLU: 3-56                   [-1, 512, 28, 28]         --\n|    Bottleneck: 2-7                   [-1, 512, 28, 28]         --\n|    |    Conv2d: 3-57                 [-1, 128, 28, 28]         65,536\n|    |    BatchNorm2d: 3-58            [-1, 128, 28, 28]         256\n|    |    ReLU: 3-59                   [-1, 128, 28, 28]         --\n|    |    Conv2d: 3-60                 [-1, 128, 28, 28]         147,456\n|    |    BatchNorm2d: 3-61            [-1, 128, 28, 28]         256\n|    |    ReLU: 3-62                   [-1, 128, 28, 28]         --\n|    |    Conv2d: 3-63                 [-1, 512, 28, 28]         65,536\n|    |    BatchNorm2d: 3-64            [-1, 512, 28, 28]         1,024\n|    |    ReLU: 3-65                   [-1, 512, 28, 28]         --\nSequential: 1-7                        [-1, 1024, 14, 14]        --\n|    Bottleneck: 2-8                   [-1, 1024, 14, 14]        --\n|    |    Conv2d: 3-66                 [-1, 256, 28, 28]         131,072\n|    |    BatchNorm2d: 3-67            [-1, 256, 28, 28]         512\n|    |    ReLU: 3-68                   [-1, 256, 28, 28]         --\n|    |    Conv2d: 3-69                 [-1, 256, 14, 14]         589,824\n|    |    BatchNorm2d: 3-70            [-1, 256, 14, 14]         512\n|    |    ReLU: 3-71                   [-1, 256, 14, 14]         --\n|    |    Conv2d: 3-72                 [-1, 1024, 14, 14]        262,144\n|    |    BatchNorm2d: 3-73            [-1, 1024, 14, 14]        2,048\n|    |    Sequential: 3-74             [-1, 1024, 14, 14]        526,336\n|    |    ReLU: 3-75                   [-1, 1024, 14, 14]        --\n|    Bottleneck: 2-9                   [-1, 1024, 14, 14]        --\n|    |    Conv2d: 3-76                 [-1, 256, 14, 14]         262,144\n|    |    BatchNorm2d: 3-77            [-1, 256, 14, 14]         512\n|    |    ReLU: 3-78                   [-1, 256, 14, 14]         --\n|    |    Conv2d: 3-79                 [-1, 256, 14, 14]         589,824\n|    |    BatchNorm2d: 3-80            [-1, 256, 14, 14]         512\n|    |    ReLU: 3-81                   [-1, 256, 14, 14]         --\n|    |    Conv2d: 3-82                 [-1, 1024, 14, 14]        262,144\n|    |    BatchNorm2d: 3-83            [-1, 1024, 14, 14]        2,048\n|    |    ReLU: 3-84                   [-1, 1024, 14, 14]        --\n|    Bottleneck: 2-10                  [-1, 1024, 14, 14]        --\n|    |    Conv2d: 3-85                 [-1, 256, 14, 14]         262,144\n|    |    BatchNorm2d: 3-86            [-1, 256, 14, 14]         512\n|    |    ReLU: 3-87                   [-1, 256, 14, 14]         --\n|    |    Conv2d: 3-88                 [-1, 256, 14, 14]         589,824\n|    |    BatchNorm2d: 3-89            [-1, 256, 14, 14]         512\n|    |    ReLU: 3-90                   [-1, 256, 14, 14]         --\n|    |    Conv2d: 3-91                 [-1, 1024, 14, 14]        262,144\n|    |    BatchNorm2d: 3-92            [-1, 1024, 14, 14]        2,048\n|    |    ReLU: 3-93                   [-1, 1024, 14, 14]        --\n|    Bottleneck: 2-11                  [-1, 1024, 14, 14]        --\n|    |    Conv2d: 3-94                 [-1, 256, 14, 14]         262,144\n|    |    BatchNorm2d: 3-95            [-1, 256, 14, 14]         512\n|    |    ReLU: 3-96                   [-1, 256, 14, 14]         --\n|    |    Conv2d: 3-97                 [-1, 256, 14, 14]         589,824\n|    |    BatchNorm2d: 3-98            [-1, 256, 14, 14]         512\n|    |    ReLU: 3-99                   [-1, 256, 14, 14]         --\n|    |    Conv2d: 3-100                [-1, 1024, 14, 14]        262,144\n|    |    BatchNorm2d: 3-101           [-1, 1024, 14, 14]        2,048\n|    |    ReLU: 3-102                  [-1, 1024, 14, 14]        --\n|    Bottleneck: 2-12                  [-1, 1024, 14, 14]        --\n|    |    Conv2d: 3-103                [-1, 256, 14, 14]         262,144\n|    |    BatchNorm2d: 3-104           [-1, 256, 14, 14]         512\n|    |    ReLU: 3-105                  [-1, 256, 14, 14]         --\n|    |    Conv2d: 3-106                [-1, 256, 14, 14]         589,824\n|    |    BatchNorm2d: 3-107           [-1, 256, 14, 14]         512\n|    |    ReLU: 3-108                  [-1, 256, 14, 14]         --\n|    |    Conv2d: 3-109                [-1, 1024, 14, 14]        262,144\n|    |    BatchNorm2d: 3-110           [-1, 1024, 14, 14]        2,048\n|    |    ReLU: 3-111                  [-1, 1024, 14, 14]        --\n|    Bottleneck: 2-13                  [-1, 1024, 14, 14]        --\n|    |    Conv2d: 3-112                [-1, 256, 14, 14]         262,144\n|    |    BatchNorm2d: 3-113           [-1, 256, 14, 14]         512\n|    |    ReLU: 3-114                  [-1, 256, 14, 14]         --\n|    |    Conv2d: 3-115                [-1, 256, 14, 14]         589,824\n|    |    BatchNorm2d: 3-116           [-1, 256, 14, 14]         512\n|    |    ReLU: 3-117                  [-1, 256, 14, 14]         --\n|    |    Conv2d: 3-118                [-1, 1024, 14, 14]        262,144\n|    |    BatchNorm2d: 3-119           [-1, 1024, 14, 14]        2,048\n|    |    ReLU: 3-120                  [-1, 1024, 14, 14]        --\nSequential: 1-8                        [-1, 2048, 7, 7]          --\n|    Bottleneck: 2-14                  [-1, 2048, 7, 7]          --\n|    |    Conv2d: 3-121                [-1, 512, 14, 14]         524,288\n|    |    BatchNorm2d: 3-122           [-1, 512, 14, 14]         1,024\n|    |    ReLU: 3-123                  [-1, 512, 14, 14]         --\n|    |    Conv2d: 3-124                [-1, 512, 7, 7]           2,359,296\n|    |    BatchNorm2d: 3-125           [-1, 512, 7, 7]           1,024\n|    |    ReLU: 3-126                  [-1, 512, 7, 7]           --\n|    |    Conv2d: 3-127                [-1, 2048, 7, 7]          1,048,576\n|    |    BatchNorm2d: 3-128           [-1, 2048, 7, 7]          4,096\n|    |    Sequential: 3-129            [-1, 2048, 7, 7]          2,101,248\n|    |    ReLU: 3-130                  [-1, 2048, 7, 7]          --\n|    Bottleneck: 2-15                  [-1, 2048, 7, 7]          --\n|    |    Conv2d: 3-131                [-1, 512, 7, 7]           1,048,576\n|    |    BatchNorm2d: 3-132           [-1, 512, 7, 7]           1,024\n|    |    ReLU: 3-133                  [-1, 512, 7, 7]           --\n|    |    Conv2d: 3-134                [-1, 512, 7, 7]           2,359,296\n|    |    BatchNorm2d: 3-135           [-1, 512, 7, 7]           1,024\n|    |    ReLU: 3-136                  [-1, 512, 7, 7]           --\n|    |    Conv2d: 3-137                [-1, 2048, 7, 7]          1,048,576\n|    |    BatchNorm2d: 3-138           [-1, 2048, 7, 7]          4,096\n|    |    ReLU: 3-139                  [-1, 2048, 7, 7]          --\n|    Bottleneck: 2-16                  [-1, 2048, 7, 7]          --\n|    |    Conv2d: 3-140                [-1, 512, 7, 7]           1,048,576\n|    |    BatchNorm2d: 3-141           [-1, 512, 7, 7]           1,024\n|    |    ReLU: 3-142                  [-1, 512, 7, 7]           --\n|    |    Conv2d: 3-143                [-1, 512, 7, 7]           2,359,296\n|    |    BatchNorm2d: 3-144           [-1, 512, 7, 7]           1,024\n|    |    ReLU: 3-145                  [-1, 512, 7, 7]           --\n|    |    Conv2d: 3-146                [-1, 2048, 7, 7]          1,048,576\n|    |    BatchNorm2d: 3-147           [-1, 2048, 7, 7]          4,096\n|    |    ReLU: 3-148                  [-1, 2048, 7, 7]          --\nAdaptiveAvgPool2d: 1-9                 [-1, 2048, 1, 1]          --\nLinear: 1-10                           [-1, 1000]                2,049,000\n==========================================================================================\nTotal params: 25,557,032\nTrainable params: 25,557,032\nNon-trainable params: 0\nTotal mult-adds (G): 4.14\n==========================================================================================\nInput size (MB): 0.57\nForward/backward pass size (MB): 169.59\nParams size (MB): 97.49\nEstimated Total Size (MB): 267.66\n==========================================================================================\n","output_type":"stream"},{"execution_count":7,"output_type":"execute_result","data":{"text/plain":"==========================================================================================\nLayer (type:depth-idx)                   Output Shape              Param #\n==========================================================================================\nConv2d: 1-1                            [-1, 64, 112, 112]        9,408\nBatchNorm2d: 1-2                       [-1, 64, 112, 112]        128\nReLU: 1-3                              [-1, 64, 112, 112]        --\nMaxPool2d: 1-4                         [-1, 64, 56, 56]          --\nSequential: 1-5                        [-1, 256, 56, 56]         --\n|    Bottleneck: 2-1                   [-1, 256, 56, 56]         --\n|    |    Conv2d: 3-1                  [-1, 64, 56, 56]          4,096\n|    |    BatchNorm2d: 3-2             [-1, 64, 56, 56]          128\n|    |    ReLU: 3-3                    [-1, 64, 56, 56]          --\n|    |    Conv2d: 3-4                  [-1, 64, 56, 56]          36,864\n|    |    BatchNorm2d: 3-5             [-1, 64, 56, 56]          128\n|    |    ReLU: 3-6                    [-1, 64, 56, 56]          --\n|    |    Conv2d: 3-7                  [-1, 256, 56, 56]         16,384\n|    |    BatchNorm2d: 3-8             [-1, 256, 56, 56]         512\n|    |    Sequential: 3-9              [-1, 256, 56, 56]         16,896\n|    |    ReLU: 3-10                   [-1, 256, 56, 56]         --\n|    Bottleneck: 2-2                   [-1, 256, 56, 56]         --\n|    |    Conv2d: 3-11                 [-1, 64, 56, 56]          16,384\n|    |    BatchNorm2d: 3-12            [-1, 64, 56, 56]          128\n|    |    ReLU: 3-13                   [-1, 64, 56, 56]          --\n|    |    Conv2d: 3-14                 [-1, 64, 56, 56]          36,864\n|    |    BatchNorm2d: 3-15            [-1, 64, 56, 56]          128\n|    |    ReLU: 3-16                   [-1, 64, 56, 56]          --\n|    |    Conv2d: 3-17                 [-1, 256, 56, 56]         16,384\n|    |    BatchNorm2d: 3-18            [-1, 256, 56, 56]         512\n|    |    ReLU: 3-19                   [-1, 256, 56, 56]         --\n|    Bottleneck: 2-3                   [-1, 256, 56, 56]         --\n|    |    Conv2d: 3-20                 [-1, 64, 56, 56]          16,384\n|    |    BatchNorm2d: 3-21            [-1, 64, 56, 56]          128\n|    |    ReLU: 3-22                   [-1, 64, 56, 56]          --\n|    |    Conv2d: 3-23                 [-1, 64, 56, 56]          36,864\n|    |    BatchNorm2d: 3-24            [-1, 64, 56, 56]          128\n|    |    ReLU: 3-25                   [-1, 64, 56, 56]          --\n|    |    Conv2d: 3-26                 [-1, 256, 56, 56]         16,384\n|    |    BatchNorm2d: 3-27            [-1, 256, 56, 56]         512\n|    |    ReLU: 3-28                   [-1, 256, 56, 56]         --\nSequential: 1-6                        [-1, 512, 28, 28]         --\n|    Bottleneck: 2-4                   [-1, 512, 28, 28]         --\n|    |    Conv2d: 3-29                 [-1, 128, 56, 56]         32,768\n|    |    BatchNorm2d: 3-30            [-1, 128, 56, 56]         256\n|    |    ReLU: 3-31                   [-1, 128, 56, 56]         --\n|    |    Conv2d: 3-32                 [-1, 128, 28, 28]         147,456\n|    |    BatchNorm2d: 3-33            [-1, 128, 28, 28]         256\n|    |    ReLU: 3-34                   [-1, 128, 28, 28]         --\n|    |    Conv2d: 3-35                 [-1, 512, 28, 28]         65,536\n|    |    BatchNorm2d: 3-36            [-1, 512, 28, 28]         1,024\n|    |    Sequential: 3-37             [-1, 512, 28, 28]         132,096\n|    |    ReLU: 3-38                   [-1, 512, 28, 28]         --\n|    Bottleneck: 2-5                   [-1, 512, 28, 28]         --\n|    |    Conv2d: 3-39                 [-1, 128, 28, 28]         65,536\n|    |    BatchNorm2d: 3-40            [-1, 128, 28, 28]         256\n|    |    ReLU: 3-41                   [-1, 128, 28, 28]         --\n|    |    Conv2d: 3-42                 [-1, 128, 28, 28]         147,456\n|    |    BatchNorm2d: 3-43            [-1, 128, 28, 28]         256\n|    |    ReLU: 3-44                   [-1, 128, 28, 28]         --\n|    |    Conv2d: 3-45                 [-1, 512, 28, 28]         65,536\n|    |    BatchNorm2d: 3-46            [-1, 512, 28, 28]         1,024\n|    |    ReLU: 3-47                   [-1, 512, 28, 28]         --\n|    Bottleneck: 2-6                   [-1, 512, 28, 28]         --\n|    |    Conv2d: 3-48                 [-1, 128, 28, 28]         65,536\n|    |    BatchNorm2d: 3-49            [-1, 128, 28, 28]         256\n|    |    ReLU: 3-50                   [-1, 128, 28, 28]         --\n|    |    Conv2d: 3-51                 [-1, 128, 28, 28]         147,456\n|    |    BatchNorm2d: 3-52            [-1, 128, 28, 28]         256\n|    |    ReLU: 3-53                   [-1, 128, 28, 28]         --\n|    |    Conv2d: 3-54                 [-1, 512, 28, 28]         65,536\n|    |    BatchNorm2d: 3-55            [-1, 512, 28, 28]         1,024\n|    |    ReLU: 3-56                   [-1, 512, 28, 28]         --\n|    Bottleneck: 2-7                   [-1, 512, 28, 28]         --\n|    |    Conv2d: 3-57                 [-1, 128, 28, 28]         65,536\n|    |    BatchNorm2d: 3-58            [-1, 128, 28, 28]         256\n|    |    ReLU: 3-59                   [-1, 128, 28, 28]         --\n|    |    Conv2d: 3-60                 [-1, 128, 28, 28]         147,456\n|    |    BatchNorm2d: 3-61            [-1, 128, 28, 28]         256\n|    |    ReLU: 3-62                   [-1, 128, 28, 28]         --\n|    |    Conv2d: 3-63                 [-1, 512, 28, 28]         65,536\n|    |    BatchNorm2d: 3-64            [-1, 512, 28, 28]         1,024\n|    |    ReLU: 3-65                   [-1, 512, 28, 28]         --\nSequential: 1-7                        [-1, 1024, 14, 14]        --\n|    Bottleneck: 2-8                   [-1, 1024, 14, 14]        --\n|    |    Conv2d: 3-66                 [-1, 256, 28, 28]         131,072\n|    |    BatchNorm2d: 3-67            [-1, 256, 28, 28]         512\n|    |    ReLU: 3-68                   [-1, 256, 28, 28]         --\n|    |    Conv2d: 3-69                 [-1, 256, 14, 14]         589,824\n|    |    BatchNorm2d: 3-70            [-1, 256, 14, 14]         512\n|    |    ReLU: 3-71                   [-1, 256, 14, 14]         --\n|    |    Conv2d: 3-72                 [-1, 1024, 14, 14]        262,144\n|    |    BatchNorm2d: 3-73            [-1, 1024, 14, 14]        2,048\n|    |    Sequential: 3-74             [-1, 1024, 14, 14]        526,336\n|    |    ReLU: 3-75                   [-1, 1024, 14, 14]        --\n|    Bottleneck: 2-9                   [-1, 1024, 14, 14]        --\n|    |    Conv2d: 3-76                 [-1, 256, 14, 14]         262,144\n|    |    BatchNorm2d: 3-77            [-1, 256, 14, 14]         512\n|    |    ReLU: 3-78                   [-1, 256, 14, 14]         --\n|    |    Conv2d: 3-79                 [-1, 256, 14, 14]         589,824\n|    |    BatchNorm2d: 3-80            [-1, 256, 14, 14]         512\n|    |    ReLU: 3-81                   [-1, 256, 14, 14]         --\n|    |    Conv2d: 3-82                 [-1, 1024, 14, 14]        262,144\n|    |    BatchNorm2d: 3-83            [-1, 1024, 14, 14]        2,048\n|    |    ReLU: 3-84                   [-1, 1024, 14, 14]        --\n|    Bottleneck: 2-10                  [-1, 1024, 14, 14]        --\n|    |    Conv2d: 3-85                 [-1, 256, 14, 14]         262,144\n|    |    BatchNorm2d: 3-86            [-1, 256, 14, 14]         512\n|    |    ReLU: 3-87                   [-1, 256, 14, 14]         --\n|    |    Conv2d: 3-88                 [-1, 256, 14, 14]         589,824\n|    |    BatchNorm2d: 3-89            [-1, 256, 14, 14]         512\n|    |    ReLU: 3-90                   [-1, 256, 14, 14]         --\n|    |    Conv2d: 3-91                 [-1, 1024, 14, 14]        262,144\n|    |    BatchNorm2d: 3-92            [-1, 1024, 14, 14]        2,048\n|    |    ReLU: 3-93                   [-1, 1024, 14, 14]        --\n|    Bottleneck: 2-11                  [-1, 1024, 14, 14]        --\n|    |    Conv2d: 3-94                 [-1, 256, 14, 14]         262,144\n|    |    BatchNorm2d: 3-95            [-1, 256, 14, 14]         512\n|    |    ReLU: 3-96                   [-1, 256, 14, 14]         --\n|    |    Conv2d: 3-97                 [-1, 256, 14, 14]         589,824\n|    |    BatchNorm2d: 3-98            [-1, 256, 14, 14]         512\n|    |    ReLU: 3-99                   [-1, 256, 14, 14]         --\n|    |    Conv2d: 3-100                [-1, 1024, 14, 14]        262,144\n|    |    BatchNorm2d: 3-101           [-1, 1024, 14, 14]        2,048\n|    |    ReLU: 3-102                  [-1, 1024, 14, 14]        --\n|    Bottleneck: 2-12                  [-1, 1024, 14, 14]        --\n|    |    Conv2d: 3-103                [-1, 256, 14, 14]         262,144\n|    |    BatchNorm2d: 3-104           [-1, 256, 14, 14]         512\n|    |    ReLU: 3-105                  [-1, 256, 14, 14]         --\n|    |    Conv2d: 3-106                [-1, 256, 14, 14]         589,824\n|    |    BatchNorm2d: 3-107           [-1, 256, 14, 14]         512\n|    |    ReLU: 3-108                  [-1, 256, 14, 14]         --\n|    |    Conv2d: 3-109                [-1, 1024, 14, 14]        262,144\n|    |    BatchNorm2d: 3-110           [-1, 1024, 14, 14]        2,048\n|    |    ReLU: 3-111                  [-1, 1024, 14, 14]        --\n|    Bottleneck: 2-13                  [-1, 1024, 14, 14]        --\n|    |    Conv2d: 3-112                [-1, 256, 14, 14]         262,144\n|    |    BatchNorm2d: 3-113           [-1, 256, 14, 14]         512\n|    |    ReLU: 3-114                  [-1, 256, 14, 14]         --\n|    |    Conv2d: 3-115                [-1, 256, 14, 14]         589,824\n|    |    BatchNorm2d: 3-116           [-1, 256, 14, 14]         512\n|    |    ReLU: 3-117                  [-1, 256, 14, 14]         --\n|    |    Conv2d: 3-118                [-1, 1024, 14, 14]        262,144\n|    |    BatchNorm2d: 3-119           [-1, 1024, 14, 14]        2,048\n|    |    ReLU: 3-120                  [-1, 1024, 14, 14]        --\nSequential: 1-8                        [-1, 2048, 7, 7]          --\n|    Bottleneck: 2-14                  [-1, 2048, 7, 7]          --\n|    |    Conv2d: 3-121                [-1, 512, 14, 14]         524,288\n|    |    BatchNorm2d: 3-122           [-1, 512, 14, 14]         1,024\n|    |    ReLU: 3-123                  [-1, 512, 14, 14]         --\n|    |    Conv2d: 3-124                [-1, 512, 7, 7]           2,359,296\n|    |    BatchNorm2d: 3-125           [-1, 512, 7, 7]           1,024\n|    |    ReLU: 3-126                  [-1, 512, 7, 7]           --\n|    |    Conv2d: 3-127                [-1, 2048, 7, 7]          1,048,576\n|    |    BatchNorm2d: 3-128           [-1, 2048, 7, 7]          4,096\n|    |    Sequential: 3-129            [-1, 2048, 7, 7]          2,101,248\n|    |    ReLU: 3-130                  [-1, 2048, 7, 7]          --\n|    Bottleneck: 2-15                  [-1, 2048, 7, 7]          --\n|    |    Conv2d: 3-131                [-1, 512, 7, 7]           1,048,576\n|    |    BatchNorm2d: 3-132           [-1, 512, 7, 7]           1,024\n|    |    ReLU: 3-133                  [-1, 512, 7, 7]           --\n|    |    Conv2d: 3-134                [-1, 512, 7, 7]           2,359,296\n|    |    BatchNorm2d: 3-135           [-1, 512, 7, 7]           1,024\n|    |    ReLU: 3-136                  [-1, 512, 7, 7]           --\n|    |    Conv2d: 3-137                [-1, 2048, 7, 7]          1,048,576\n|    |    BatchNorm2d: 3-138           [-1, 2048, 7, 7]          4,096\n|    |    ReLU: 3-139                  [-1, 2048, 7, 7]          --\n|    Bottleneck: 2-16                  [-1, 2048, 7, 7]          --\n|    |    Conv2d: 3-140                [-1, 512, 7, 7]           1,048,576\n|    |    BatchNorm2d: 3-141           [-1, 512, 7, 7]           1,024\n|    |    ReLU: 3-142                  [-1, 512, 7, 7]           --\n|    |    Conv2d: 3-143                [-1, 512, 7, 7]           2,359,296\n|    |    BatchNorm2d: 3-144           [-1, 512, 7, 7]           1,024\n|    |    ReLU: 3-145                  [-1, 512, 7, 7]           --\n|    |    Conv2d: 3-146                [-1, 2048, 7, 7]          1,048,576\n|    |    BatchNorm2d: 3-147           [-1, 2048, 7, 7]          4,096\n|    |    ReLU: 3-148                  [-1, 2048, 7, 7]          --\nAdaptiveAvgPool2d: 1-9                 [-1, 2048, 1, 1]          --\nLinear: 1-10                           [-1, 1000]                2,049,000\n==========================================================================================\nTotal params: 25,557,032\nTrainable params: 25,557,032\nNon-trainable params: 0\nTotal mult-adds (G): 4.14\n==========================================================================================\nInput size (MB): 0.57\nForward/backward pass size (MB): 169.59\nParams size (MB): 97.49\nEstimated Total S
…
iopub.status.busy":"2024-11-20T18:28:26.975572Z","iopub.execute_input":"2024-11-20T18:28:26.976535Z","iopub.status.idle":"2024-11-20T18:28:27.178912Z","shell.execute_reply.started":"2024-11-20T18:28:26.976494Z","shell.execute_reply":"2024-11-20T18:28:27.178047Z"}},"outputs":[{"name":"stdout","text":"==========================================================================================\nLayer (type:depth-idx)                   Output Shape              Param #\n==========================================================================================\nSequential: 1-1                        [-1, 1024, 7, 7]          --\n|    Conv2d: 2-1                       [-1, 64, 112, 122]        9,408\n|    BatchNorm2d: 2-2                  [-1, 64, 112, 122]        128\n|    ReLU: 2-3                         [-1, 64, 112, 122]        --\n|    MaxPool2d: 2-4                    [-1, 64, 56, 61]          --\n|    _DenseBlock: 2-5                  [-1, 256, 56, 61]         --\n|    |    _DenseLayer: 3-1             [-1, 32, 56, 61]          45,440\n|    |    _DenseLayer: 3-2             [-1, 32, 56, 61]          49,600\n|    |    _DenseLayer: 3-3             [-1, 32, 56, 61]          53,760\n|    |    _DenseLayer: 3-4             [-1, 32, 56, 61]          57,920\n|    |    _DenseLayer: 3-5             [-1, 32, 56, 61]          62,080\n|    |    _DenseLayer: 3-6             [-1, 32, 56, 61]          66,240\n|    _Transition: 2-6                  [-1, 128, 28, 30]         --\n|    |    BatchNorm2d: 3-7             [-1, 256, 56, 61]         512\n|    |    ReLU: 3-8                    [-1, 256, 56, 61]         --\n|    |    Conv2d: 3-9                  [-1, 128, 56, 61]         32,768\n|    |    AvgPool2d: 3-10              [-1, 128, 28, 30]         --\n|    _DenseBlock: 2-7                  [-1, 512, 28, 30]         --\n|    |    _DenseLayer: 3-11            [-1, 32, 28, 30]          53,760\n|    |    _DenseLayer: 3-12            [-1, 32, 28, 30]          57,920\n|    |    _DenseLayer: 3-13            [-1, 32, 28, 30]          62,080\n|    |    _DenseLayer: 3-14            [-1, 32, 28, 30]          66,240\n|    |    _DenseLayer: 3-15            [-1, 32, 28, 30]          70,400\n|    |    _DenseLayer: 3-16            [-1, 32, 28, 30]          74,560\n|    |    _DenseLayer: 3-17            [-1, 32, 28, 30]          78,720\n|    |    _DenseLayer: 3-18            [-1, 32, 28, 30]          82,880\n|    |    _DenseLayer: 3-19            [-1, 32, 28, 30]          87,040\n|    |    _DenseLayer: 3-20            [-1, 32, 28, 30]          91,200\n|    |    _DenseLayer: 3-21            [-1, 32, 28, 30]          95,360\n|    |    _DenseLayer: 3-22            [-1, 32, 28, 30]          99,520\n|    _Transition: 2-8                  [-1, 256, 14, 15]         --\n|    |    BatchNorm2d: 3-23            [-1, 512, 28, 30]         1,024\n|    |    ReLU: 3-24                   [-1, 512, 28, 30]         --\n|    |    Conv2d: 3-25                 [-1, 256, 28, 30]         131,072\n|    |    AvgPool2d: 3-26              [-1, 256, 14, 15]         --\n|    _DenseBlock: 2-9                  [-1, 1024, 14, 15]        --\n|    |    _DenseLayer: 3-27            [-1, 32, 14, 15]          70,400\n|    |    _DenseLayer: 3-28            [-1, 32, 14, 15]          74,560\n|    |    _DenseLayer: 3-29            [-1, 32, 14, 15]          78,720\n|    |    _DenseLayer: 3-30            [-1, 32, 14, 15]          82,880\n|    |    _DenseLayer: 3-31            [-1, 32, 14, 15]          87,040\n|    |    _DenseLayer: 3-32            [-1, 32, 14, 15]          91,200\n|    |    _DenseLayer: 3-33            [-1, 32, 14, 15]          95,360\n|    |    _DenseLayer: 3-34            [-1, 32, 14, 15]          99,520\n|    |    _DenseLayer: 3-35            [-1, 32, 14, 15]          103,680\n|    |    _DenseLayer: 3-36            [-1, 32, 14, 15]          107,840\n|    |    _DenseLayer: 3-37            [-1, 32, 14, 15]          112,000\n|    |    _DenseLayer: 3-38            [-1, 32, 14, 15]          116,160\n|    |    _DenseLayer: 3-39            [-1, 32, 14, 15]          120,320\n|    |    _DenseLayer: 3-40            [-1, 32, 14, 15]          124,480\n|    |    _DenseLayer: 3-41            [-1, 32, 14, 15]          128,640\n|    |    _DenseLayer: 3-42            [-1, 32, 14, 15]          132,800\n|    |    _DenseLayer: 3-43            [-1, 32, 14, 15]          136,960\n|    |    _DenseLayer: 3-44            [-1, 32, 14, 15]          141,120\n|    |    _DenseLayer: 3-45            [-1, 32, 14, 15]          145,280\n|    |    _DenseLayer: 3-46            [-1, 32, 14, 15]          149,440\n|    |    _DenseLayer: 3-47            [-1, 32, 14, 15]          153,600\n|    |    _DenseLayer: 3-48            [-1, 32, 14, 15]          157,760\n|    |    _DenseLayer: 3-49            [-1, 32, 14, 15]          161,920\n|    |    _DenseLayer: 3-50            [-1, 32, 14, 15]          166,080\n|    _Transition: 2-10                 [-1, 512, 7, 7]           --\n|    |    BatchNorm2d: 3-51            [-1, 1024, 14, 15]        2,048\n|    |    ReLU: 3-52                   [-1, 1024, 14, 15]        --\n|    |    Conv2d: 3-53                 [-1, 512, 14, 15]         524,288\n|    |    AvgPool2d: 3-54              [-1, 512, 7, 7]           --\n|    _DenseBlock: 2-11                 [-1, 1024, 7, 7]          --\n|    |    _DenseLayer: 3-55            [-1, 32, 7, 7]            103,680\n|    |    _DenseLayer: 3-56            [-1, 32, 7, 7]            107,840\n|    |    _DenseLayer: 3-57            [-1, 32, 7, 7]            112,000\n|    |    _DenseLayer: 3-58            [-1, 32, 7, 7]            116,160\n|    |    _DenseLayer: 3-59            [-1, 32, 7, 7]            120,320\n|    |    _DenseLayer: 3-60            [-1, 32, 7, 7]            124,480\n|    |    _DenseLayer: 3-61            [-1, 32, 7, 7]            128,640\n|    |    _DenseLayer: 3-62            [-1, 32, 7, 7]            132,800\n|    |    _DenseLayer: 3-63            [-1, 32, 7, 7]            136,960\n|    |    _DenseLayer: 3-64            [-1, 32, 7, 7]            141,120\n|    |    _DenseLayer: 3-65            [-1, 32, 7, 7]            145,280\n|    |    _DenseLayer: 3-66            [-1, 32, 7, 7]            149,440\n|    |    _DenseLayer: 3-67            [-1, 32, 7, 7]            153,600\n|    |    _DenseLayer: 3-68            [-1, 32, 7, 7]            157,760\n|    |    _DenseLayer: 3-69            [-1, 32, 7, 7]            161,920\n|    |    _DenseLayer: 3-70            [-1, 32, 7, 7]            166,080\n|    BatchNorm2d: 2-12                 [-1, 1024, 7, 7]          2,048\nLinear: 1-2                            [-1, 1000]                1,025,000\n==========================================================================================\nTotal params: 7,978,856\nTrainable params: 7,978,856\nNon-trainable params: 0\nTotal mult-adds (G): 3.07\n==========================================================================================\nInput size (MB): 0.63\nForward/backward pass size (MB): 185.49\nParams size (MB): 30.44\nEstimated Total Siz
…
iopub.status.busy":"2024-11-20T18:29:51.356276Z","iopub.execute_input":"2024-11-20T18:29:51.356655Z","iopub.status.idle":"2024-11-20T18:29:51.537760Z","shell.execute_reply.started":"2024-11-20T18:29:51.356622Z","shell.execute_reply":"2024-11-20T18:29:51.536794Z"}},"outputs":[{"name":"stdout","text":"==========================================================================================\nLayer (type:depth-idx)                   Output Shape              Param #\n==========================================================================================\nSequential: 1-1                        [-1, 512, 7, 7]           --\n|    Conv2d: 2-1                       [-1, 64, 224, 224]        (1,792)\n|    ReLU: 2-2                         [-1, 64, 224, 224]        --\n|    Conv2d: 2-3                       [-1, 64, 224, 224]        (36,928)\n|    ReLU: 2-4                         [-1, 64, 224, 224]        --\n|    MaxPool2d: 2-5                    [-1, 64, 112, 112]        --\n|    Conv2d: 2-6                       [-1, 128, 112, 112]       (73,856)\n|    ReLU: 2-7                         [-1, 128, 112, 112]       --\n|    Conv2d: 2-8                       [-1, 128, 112, 112]       (147,584)\n|    ReLU: 2-9                         [-1, 128, 112, 112]       --\n|    MaxPool2d: 2-10                   [-1, 128, 56, 56]         --\n|    Conv2d: 2-11                      [-1, 256, 56, 56]         (295,168)\n|    ReLU: 2-12                        [-1, 256, 56, 56]         --\n|    Conv2d: 2-13                      [-1, 256, 56, 56]         (590,080)\n|    ReLU: 2-14                        [-1, 256, 56, 56]         --\n|    Conv2d: 2-15                      [-1, 256, 56, 56]         (590,080)\n|    ReLU: 2-16                        [-1, 256, 56, 56]         --\n|    Conv2d: 2-17                      [-1, 256, 56, 56]         (590,080)\n|    ReLU: 2-18                        [-1, 256, 56, 56]         --\n|    MaxPool2d: 2-19                   [-1, 256, 28, 28]         --\n|    Conv2d: 2-20                      [-1, 512, 28, 28]         (1,180,160)\n|    ReLU: 2-21                        [-1, 512, 28, 28]         --\n|    Conv2d: 2-22                      [-1, 512, 28, 28]         (2,359,808)\n|    ReLU: 2-23                        [-1, 512, 28, 28]         --\n|    Conv2d: 2-24                      [-1, 512, 28, 28]         (2,359,808)\n|    ReLU: 2-25                        [-1, 512, 28, 28]         --\n|    Conv2d: 2-26                      [-1, 512, 28, 28]         (2,359,808)\n|    ReLU: 2-27                        [-1, 512, 28, 28]         --\n|    MaxPool2d: 2-28                   [-1, 512, 14, 14]         --\n|    Conv2d: 2-29                      [-1, 512, 14, 14]         (2,359,808)\n|    ReLU: 2-30                        [-1, 512, 14, 14]         --\n|    Conv2d: 2-31                      [-1, 512, 14, 14]         (2,359,808)\n|    ReLU: 2-32                        [-1, 512, 14, 14]         --\n|    Conv2d: 2-33                      [-1, 512, 14, 14]         (2,359,808)\n|    ReLU: 2-34                        [-1, 512, 14, 14]         --\n|    Conv2d: 2-35                      [-1, 512, 14, 14]         (2,359,808)\n|    ReLU: 2-36                        [-1, 512, 14, 14]         --\n|    MaxPool2d: 2-37                   [-1, 512, 7, 7]           --\nAdaptiveAvgPool2d: 1-2                 [-1, 512, 1, 1]           --\nFlatten: 1-3                           [-1, 512]                 --\n==========================================================================================\nTotal params: 20,024,384\nTrainable params: 0\nNon-trainable params: 20,024,384\nTotal mult-adds (G): 19.53\n==========================================================================================\nInput size (MB): 0.57\nForward/backward pass size (MB): 113.31\nParams size (MB): 76.39\nEstimated Total Size (MB): 190.27\n==========================================================================================\n==========================================================================================\nLayer (type:depth-idx)                   Output Shape              Param #\n==========================================================================================\nConv2d: 1-1                            [-1, 64, 112, 112]        (9,408)\nBatchNorm2d: 1-2                       [-1, 64, 112, 112]        (128)\nReLU: 1-3                              [-1, 64, 112, 112]        --\nMaxPool2d: 1-4                         [-1, 64, 56, 56]          --\nSequential: 1-5                        [-1, 256, 56, 56]         --\n|    Bottleneck: 2-1                   [-1, 256, 56, 56]         --\n|    |    Conv2d: 3-1                  [-1, 64, 56, 56]          (4,096)\n|    |    BatchNorm2d: 3-2             [-1, 64, 56, 56]          (128)\n|    |    ReLU: 3-3                    [-1, 64, 56, 56]          --\n|    |    Conv2d: 3-4                  [-1, 64, 56, 56]          (36,864)\n|    |    BatchNorm2d: 3-5             [-1, 64, 56, 56]          (128)\n|    |    ReLU: 3-6                    [-1, 64, 56, 56]          --\n|    |    Conv2d: 3-7                  [-1, 256, 56, 56]         (16,384)\n|    |    BatchNorm2d: 3-8             [-1, 256, 56, 56]         (512)\n|    |    Sequential: 3-9              [-1, 256, 56, 56]         (16,896)\n|    |    ReLU: 3-10                   [-1, 256, 56, 56]         --\n|    Bottleneck: 2-2                   [-1, 256, 56, 56]         --\n|    |    Conv2d: 3-11                 [-1, 64, 56, 56]          (16,384)\n|    |    BatchNorm2d: 3-12            [-1, 64, 56, 56]          (128)\n|    |    ReLU: 3-13                   [-1, 64, 56, 56]          --\n|    |    Conv2d: 3-14                 [-1, 64, 56, 56]          (36,864)\n|    |    BatchNorm2d: 3-15            [-1, 64, 56, 56]          (128)\n|    |    ReLU: 3-16                   [-1, 64, 56, 56]          --\n|    |    Conv2d: 3-17                 [-1, 256, 56, 56]         (16,384)\n|    |    BatchNorm2d: 3-18            [-1, 256, 56, 56]         (512)\n|    |    ReLU: 3-19                   [-1, 256, 56, 56]         --\n|    Bottleneck: 2-3                   [-1, 256, 56, 56]         --\n|    |    Conv2d: 3-20                 [-1, 64, 56, 56]          (16,384)\n|    |    BatchNorm2d: 3-21            [-1, 64, 56, 56]          (128)\n|    |    ReLU: 3-22                   [-1, 64, 56, 56]          --\n|    |    Conv2d: 3-23                 [-1, 64, 56, 56]          (36,864)\n|    |    BatchNorm2d: 3-24            [-1, 64, 56, 56]          (128)\n|    |    ReLU: 3-25                   [-1, 64, 56, 56]          --\n|    |    Conv2d: 3-26                 [-1, 256, 56, 56]         (16,384)\n|    |    BatchNorm2d: 3-27            [-1, 256, 56, 56]         (512)\n|    |    ReLU: 3-28                   [-1, 256, 56, 56]         --\nSequential: 1-6                        [-1, 512, 28, 28]         --\n|    Bottleneck: 2-4                   [-1, 512, 28, 28]         --\n|    |    Conv2d: 3-29                 [-1, 128, 56, 56]         (32,768)\n|    |    BatchNorm2d: 3-30            [-1, 128, 56, 56]         (256)\n|    |    ReLU: 3-31                   [-1, 128, 56, 56]         --\n|    |    Conv2d: 3-32                 [-1, 128, 28, 28]         (147,456)\n|    |    BatchNorm2d: 3-33            [-1, 128, 28, 28]         (256)\n|    |    ReLU: 3-34                   [-1, 128, 28, 28]         --\n|    |    Conv2d: 3-35                 [-1, 512, 28, 28]         (65,536)\n|    |    BatchNorm2d: 3-36            [-1, 512, 28, 28]         (1,024)\n|    |    Sequential: 3-37             [-1, 512, 28, 28]         (132,096)\n|    |    ReLU: 3-38                   [-1, 512, 28, 28]         --\n|    Bottleneck: 2-5                   [-1, 512, 28, 28]         --\n|    |    Conv2d: 3-39                 [-1, 128, 28, 28]         (65,536)\n|    |    BatchNorm2d: 3-40            [-1, 128, 28, 28]         (256)\n|    |    ReLU: 3-41                   [-1, 128, 28, 28]         --\n|    |    Conv2d: 3-42                 [-1, 128, 28, 28]         (147,456)\n|    |    BatchNorm2d: 3-43            [-1, 128, 28, 28]         (256)\n|    |    ReLU: 3-44                   [-1, 128, 28, 28]         --\n|    |    Conv2d: 3-45                 [-1, 512, 28, 28]         (65,536)\n|    |    BatchNorm2d: 3-46            [-1, 512, 28, 28]         (1,024)\n|    |    ReLU: 3-47                   [-1, 512, 28, 28]         --\n|    Bottleneck: 2-6                   [-1, 512, 28, 28]         --\n|    |    Conv2d: 3-48                 [-1, 128, 28, 28]         (65,536)\n|    |    BatchNorm2d: 3-49            [-1, 128, 28, 28]         (256)\n|    |    ReLU: 3-50                   [-1, 128, 28, 28]         --\n|    |    Conv2d: 3-51                 [-1, 128, 28, 28]         (147,456)\n|    |    BatchNorm2d: 3-52            [-1, 128, 28, 28]         (256)\n|    |    ReLU: 3-53                   [-1, 128, 28, 28]         --\n|    |    Conv2d: 3-54                 [-1, 512, 28, 28]         (65,536)\n|    |    BatchNorm2d: 3-55            [-1, 512, 28, 28]         (1,024)\n|    |    ReLU: 3-56                   [-1, 512, 28, 28]         --\n|    Bottleneck: 2-7                   [-1, 512, 28, 28]         --\n|    |    Conv2d: 3-57                 [-1, 128, 28, 28]         (65,536)\n|    |    BatchNorm2d: 3-58            [-1, 128, 28, 28]         (256)\n|    |    ReLU: 3-59                   [-1, 128, 28, 28]         --\n|    |    Conv2d: 3-60                 [-1, 128, 28, 28]         (147,456)\n|    |    BatchNorm2d: 3-61            [-1, 128, 28, 28]         (256)\n|    |    ReLU: 3-62                   [-1, 128, 28, 28]         --\n|    |    Conv2d: 3-63                 [-1, 512, 28, 28]         (65,536)\n|    |    BatchNorm2d: 3-64            [-1, 512, 28, 28]         (1,024)\n|    |    ReLU: 3-65                   [-1, 512, 28, 28]         --\nSequential: 1-7                        [-1, 1024, 14, 14]        --\n|    Bottleneck: 2-8                   [-1, 1024, 14, 14]        --\n|    |    Conv2d: 3-66                 [-1, 256, 28, 28]         (131,072)\n|    |    BatchNorm2d: 3-67            [-1, 256, 28, 28]         (512)\n|    |    ReLU: 3-68                   [-1, 256, 28, 28]         --\n|    |    Conv2d: 3-69                 [-1, 256, 14, 14]         (589,824)\n|    |    BatchNorm2d: 3-70            [-1, 256, 14, 14]         (512)\n|    |    ReLU: 3-71                   [-1, 256, 14, 14]         --\n|    |    Conv2d: 3-72                 [-1, 1024, 14, 14]        (262,144)\n|    |    BatchNorm2d: 3-73            [-1, 1024, 14, 14]        (2,048)\n|    |    Sequential: 3-74             [-1, 1024, 14, 14]        (526,336)\n|    |    ReLU: 3-75                   [-1, 1024, 14, 14]        --\n|    Bottleneck: 2-9                   [-1, 1024, 14, 14]        --\n|    |    Conv2d: 3-76                 [-1, 256, 14, 14]         (262,144)\n|    |    BatchNorm2d: 3-77            [-1, 256, 14, 14]         (512)\n|    |    ReLU: 3-78                   [-1, 256, 14, 14]         --\n|    |    Conv2d: 3-79                 [-1, 256, 14, 14]         (589,824)\n|    |    BatchNorm2d: 3-80            [-1, 256, 14, 14]         (512)\n|    |    ReLU: 3-81                   [-1, 256, 14, 14]         --\n|    |    Conv2d: 3-82                 [-1, 1024, 14, 14]        (262,144)\n|    |    BatchNorm2d: 3-83            [-1, 1024, 14, 14]        (2,048)\n|    |    ReLU: 3-84                   [-1, 1024, 14, 14]        --\n|    Bottleneck: 2-10                  [-1, 1024, 14, 14]        --\n|    |    Conv2d: 3-85                 [-1, 256, 14, 14]         (262,144)\n|    |    BatchNorm2d: 3-86            [-1, 256, 14, 14]         (512)\n|    |    ReLU: 3-87                   [-1, 256, 14, 14]         --\n|    |    Conv2d: 3-88                 [-1, 256, 14, 14]         (589,824)\n|    |    BatchNorm2d: 3-89            [-1, 256, 14, 14]         (512)\n|    |    ReLU: 3-90                   [-1, 256, 14, 14]         --\n|    |    Conv2d: 3-91                 [-1, 1024, 14, 14]        (262,144)\n|    |    BatchNorm2d: 3-92            [-1, 1024, 14, 14]        (2,048)\n|    |    ReLU: 3-93                   [-1, 1024, 14, 14]        --\n|    Bottleneck: 2-11                  [-1, 1024, 14, 14]        --\n|    |    Conv2d: 3-94                 [-1, 256, 14, 14]         (262,144)\n|    |    BatchNorm2d: 3-95            [-1, 256, 14, 14]         (512)\n|    |    ReLU: 3-96                   [-1, 256, 14, 14]         --\n|    |    Conv2d: 3-97                 [-1, 256, 14, 14]         (589,824)\n|    |    BatchNorm2d: 3-98            [-1, 256, 14, 14]         (512)\n|    |    ReLU: 3-99                   [-1, 256, 14, 14]         --\n|    |    Conv2d: 3-100                [-1, 1024, 14, 14]        (262,144)\n|    |    BatchNorm2d: 3-101           [-1, 1024, 14, 14]        (2,048)\n|    |    ReLU: 3-102                  [-1, 1024, 14, 14]        --\n|    Bottleneck: 2-12                  [-1, 1024, 14, 14]        --\n|    |    Conv2d: 3-103                [-1, 256, 14, 14]         (262,144)\n|    |    BatchNorm2d: 3-104           [-1, 256, 14, 14]         (512)\n|    |    ReLU: 3-105                  [-1, 256, 14, 14]         --\n|    |    Conv2d: 3-106                [-1, 256, 14, 14]         (589,824)\n|    |    BatchNorm2d: 3-107           [-1, 256, 14, 14]         (512)\n|    |    ReLU: 3-108                  [-1, 256, 14, 14]         --\n|    |    Conv2d: 3-109                [-1, 1024, 14, 14]        (262,144)\n|    |    BatchNorm2d: 3-110           [-1, 1024, 14, 14]        (2,048)\n|    |    ReLU: 3-111                  [-1, 1024, 14, 14]        --\n|    Bottleneck: 2-13                  [-1, 1024, 14, 14]        --\n|    |    Conv2d: 3-112                [-1, 256, 14, 14]         (262,144)\n|    |    BatchNorm2d: 3-113           [-1, 256, 14, 14]         (512)\n|    |    ReLU: 3-114                  [-1, 256, 14, 14]         --\n|    |    Conv2d: 3-115                [-1, 256, 14, 14]         (589,824)\n|    |    BatchNorm2d: 3-116           [-1, 256, 14, 14]         (512)\n|    |    ReLU: 3-117                  [-1, 256, 14, 14]         --\n|    |    Conv2d: 3-118                [-1, 1024, 14, 14]        (262,144)\n|    |    BatchNorm2d: 3-119           [-1, 1024, 14, 14]        (2,048)\n|    |    ReLU: 3-120                  [-1, 1024, 14, 14]        --\nSequential: 1-8                        [-1, 2048, 7, 7]          --\n|    Bottleneck: 2-14                  [-1, 2048, 7, 7]          --\n|    |    Conv2d: 3-121                [-1, 512, 14, 14]         (524,288)\n|    |    BatchNorm2d: 3-122           [-1, 512, 14, 14]         (1,024)\n|    |    ReLU: 3-123                  [-1, 512, 14, 14]         --\n|    |    Conv2d: 3-124                [-1, 512, 7, 7]           (2,359,296)\n|    |    BatchNorm2d: 3-125           [-1, 512, 7, 7]           (1,024)\n|    |    ReLU: 3-126                  [-1, 512, 7, 7]           --\n|    |    Conv2d: 3-127                [-1, 2048, 7, 7]          (1,048,576)\n|    |    BatchNorm2d: 3-128           [-1, 2048, 7, 7]          (4,096)\n|    |    Sequential: 3-129            [-1, 2048, 7, 7]          (2,101,248)\n|    |    ReLU: 3-130                  [-1, 2048, 7, 7]          --\n|    Bottleneck: 2-15                  [-1, 2048, 7, 7]          --\n|    |    Conv2d: 3-131                [-1, 512, 7, 7]           (1,048,576)\n|    |    BatchNorm2d: 3-132           [-1, 512, 7, 7]           (1,024)\n|    |    ReLU: 3-133                  [-1, 512, 7, 7]           --\n|    |    Conv2d: 3-134                [-1, 512, 7, 7]           (2,359,296)\n|    |    BatchNorm2d: 3-135           [-1, 512, 7, 7]           (1,024)\n|    |    ReLU: 3-136                  [-1, 512, 7, 7]           --\n|    |    Conv2d: 3-137                [-1, 2048, 7, 7]          (1,048,576)\n|    |    BatchNorm2d: 3-138           [-1, 2048, 7, 7]          (4,096)\n|    |    ReLU: 3-139                  [-1, 2048, 7, 7]          --\n|    Bottleneck: 2-16                  [-1, 2048, 7, 7]          --\n|    |    Conv2d: 3-140                [-1, 512, 7, 7]           (1,048,576)\n|    |    BatchNorm2d: 3-141           [-1, 512, 7, 7]           (1,024)\n|    |    ReLU: 3-142                  [-1, 512, 7, 7]           --\n|    |    Conv2d: 3-143                [-1, 512, 7, 7]           (2,359,296)\n|    |    BatchNorm2d: 3-144           [-1, 512, 7, 7]           (1,024)\n|    |    ReLU: 3-145                  [-1, 512, 7, 7]           --\n|    |    Conv2d: 3-146                [-1, 2048, 7, 7]          (1,048,576)\n|    |    BatchNorm2d: 3-147           [-1, 2048, 7, 7]          (4,096)\n|    |    ReLU: 3-148                  [-1, 2048, 7, 7]          --\nAdaptiveAvgPool2d: 1-9                 [-1, 2048, 1, 1]          --\nFlatten: 1-10                          [-1, 2048]                --\n==========================================================================================\nTotal params: 23,508,032\nTrainable params: 0\nNon-trainable params: 23,508,032\nTotal mult-adds (G): 4.14\n==========================================================================================\nInput size (MB): 0.57\nForward/backward pass size (MB): 169.59\nParams size (MB): 89.68\nEstimated Total Size (MB): 259.84\n==========================================================================================\n==========================================================================================\nLayer (type:depth-idx)                   Output Shape              Param #\n==========================================================================================\nSequential: 1-1                        [-1, 1024, 7, 7]          --\n|    Conv2d: 2-1                       [-1, 64, 112, 112]        (9,408)\n|    BatchNorm2d: 2-2                  [-1, 64, 112, 112]        (128)\n|    ReLU: 2-3                         [-1, 64, 112, 112]        --\n|    MaxPool2d: 2-4                    [-1, 64, 56, 56]          --\n|    _DenseBlock: 2-5                  [-1, 256, 56, 56]         --\n|    |    _DenseLayer: 3-1             [-1, 32, 56, 56]          (45,440)\n|    |    _DenseLayer: 3-2             [-1, 32, 56, 56]          (49,600)\n|    |    _DenseLayer: 3-3             [-1, 32, 56, 56]          (53,760)\n|    |    _DenseLayer: 3-4             [-1, 32, 56, 56]          (57,920)\n|    |    _DenseLayer: 3-5             [-1, 32, 56, 56]          (62,080)\n|    |    _DenseLayer: 3-6             [-1, 32, 56, 56]          (66,240)\n|    _Transition: 2-6                  [-1, 128, 28, 28]         --\n|    |    BatchNorm2d: 3-7             [-1, 256, 56, 56]         (512)\n|    |    ReLU: 3-8                    [-1, 256, 56, 56]         --\n|    |    Conv2d: 3-9                  [-1, 128, 56, 56]         (32,768)\n|    |    AvgPool2d: 3-10              [-1, 128, 28, 28]         --\n|    _DenseBlock: 2-7                  [-1, 512, 28, 28]         --\n|    |    _DenseLayer: 3-11            [-1, 32, 28, 28]          (53,760)\n|    |    _DenseLayer: 3-12            [-1, 32, 28, 28]          (57,920)\n|    |    _DenseLayer: 3-13            [-1, 32, 28, 28]          (62,080)\n|    |    _DenseLayer: 3-14            [-1, 32, 28, 28]          (66,240)\n|    |    _DenseLayer: 3-15            [-1, 32, 28, 28]          (70,400)\n|    |    _DenseLayer: 
…
 0.57\nForward/backward pass size (MB): 172.17\nParams size (MB): 26.53\nEstimated Total Size (MB): 199.27\n==========================================================================================\n","output_type":"stream"},{"execution_count":14,"output_type":"execute_result","data":{"text/plain":"==========================================================================================\nLayer (type:depth-idx)                   Output Shape              Param #\n==========================================================================================\nSequential: 1-1                        [-1, 1024, 7, 7]          --\n|    Conv2d: 2-1                       [-1, 64, 112, 112]        (9,408)\n|    BatchNorm2d: 2-2                  [-1, 64, 112, 112]        (128)\n|    ReLU: 2-3                         [-1, 64, 112, 112]        --\n|    MaxPool2d: 2-4                    [-1, 64, 56, 56]          --\n|    _DenseBlock: 2-5                  [-1, 256, 56, 56]         --\n|    |    _DenseLayer: 3-1             [-1, 32, 56, 56]          (45,440)\n|    |    _DenseLayer: 3-2             [-1, 32, 56, 56]          (49,600)\n|    |    _DenseLayer: 3-3             [-1, 32, 56, 56]          (53,760)\n|    |    _DenseLayer: 3-4             [-1, 32, 56, 56]          (57,920)\n|    |    _DenseLayer: 3-5             [-1, 32, 56, 56]          (62,080)\n|    |    _DenseLayer: 3-6             [-1, 32, 56, 56]          (66,240)\n|    _Transition: 2-6                  [-1, 128, 28, 28]         --\n|    |    BatchNorm2d: 3-7             [-1, 256, 56, 56]         (512)\n|    |    ReLU: 3-8                    [-1, 256, 56, 56]         --\n|    |    Conv2d: 3-9                  [-1, 128, 56, 56]         (32,768)\n|    |    AvgPool2d: 3-10              [-1, 128, 28, 28]         --\n|    _DenseBlock: 2-7                  [-1, 512, 28, 28]         --\n|    |    _DenseLayer: 3-11            [-1, 32, 28, 28]          (53,760)\n|    |    _DenseLayer: 3-12            [-1, 32, 28, 28]          (57,920)\n|    |    _DenseLayer: 3-13            [-1, 32, 28, 28]          (62,080)\n|    |    _DenseLayer: 3-14            [-1, 32, 28, 28]          (66,240)\n|    |    _DenseLayer: 3-15            [-1, 32, 28, 28]          (70,400)\n|    |    _DenseLayer: 
…
