…
ub.execute_input":"2024-12-04T19:51:53.028073Z","iopub.status.idle":"2024-12-04T19:51:53.073662Z","shell.execute_reply.started":"2024-12-04T19:51:53.028049Z","shell.execute_reply":"2024-12-04T19:51:53.072849Z"},"collapsed":true,"jupyter":{"outputs_hidden":true}},"outputs":[{"name":"stdout","text":"==========================================================================================\nLayer (type:depth-idx)                   Output Shape              Param #\n==========================================================================================\n├─Conv2d: 1-1                            [-1, 64, 112, 112]        9,408\n├─BatchNorm2d: 1-2                       [-1, 64, 112, 112]        128\n├─ReLU: 1-3                              [-1, 64, 112, 112]        --\n├─MaxPool2d: 1-4                         [-1, 64, 56, 56]          --\n├─Sequential: 1-5                        [-1, 256, 56, 56]         --\n|    └─Bottleneck: 2-1                   [-1, 256, 56, 56]         --\n|    |    └─Conv2d: 3-1                  [-1, 64, 56, 56]          4,096\n|    |    └─BatchNorm2d: 3-2             [-1, 64, 56, 56]          128\n|    |    └─ReLU: 3-3                    [-1, 64, 56, 56]          --\n|    |    └─Conv2d: 3-4                  [-1, 64, 56, 56]          36,864\n|    |    └─BatchNorm2d: 3-5             [-1, 64, 56, 56]          128\n|    |    └─ReLU: 3-6                    [-1, 64, 56, 56]          --\n|    |    └─Conv2d: 3-7                  [-1, 256, 56, 56]         16,384\n|    |    └─BatchNorm2d: 3-8             [-1, 256, 56, 56]         512\n|    |    └─Sequential: 3-9              [-1, 256, 56, 56]         16,896\n|    |    └─ReLU: 3-10                   [-1, 256, 56, 56]         --\n|    └─Bottleneck: 2-2                   [-1, 256, 56, 56]         --\n|    |    └─Conv2d: 3-11                 [-1, 64, 56, 56]          16,384\n|    |    └─BatchNorm2d: 3-12            [-1, 64, 56, 56]          128\n|    |    └─ReLU: 3-13                   [-1, 64, 56, 56]          --\n|    |    └─Conv2d: 3-14                 [-1, 64, 56, 56]          36,864\n|    |    └─BatchNorm2d: 3-15            [-1, 64, 56, 56]          128\n|    |    └─ReLU: 3-16                   [-1, 64, 56, 56]          --\n|    |    └─Conv2d: 3-17                 [-1, 256, 56, 56]         16,384\n|    |    └─BatchNorm2d: 3-18            [-1, 256, 56, 56]         512\n|    |    └─ReLU: 3-19                   [-1, 256, 56, 56]         --\n|    └─Bottleneck: 2-3                   [-1, 256, 56, 56]         --\n|    |    └─Conv2d: 3-20                 [-1, 64, 56, 56]          16,384\n|    |    └─BatchNorm2d: 3-21            [-1, 64, 56, 56]          128\n|    |    └─ReLU: 3-22                   [-1, 64, 56, 56]          --\n|    |    └─Conv2d: 3-23                 [-1, 64, 56, 56]          36,864\n|    |    └─BatchNorm2d: 3-24            [-1, 64, 56, 56]          128\n|    |    └─ReLU: 3-25                   [-1, 64, 56, 56]          --\n|    |    └─Conv2d: 3-26                 [-1, 256, 56, 56]         16,384\n|    |    └─BatchNorm2d: 3-27            [-1, 256, 56, 56]         512\n|    |    └─ReLU: 3-28                   [-1, 256, 56, 56]         --\n├─Sequential: 1-6                        [-1, 512, 28, 28]         --\n|    └─Bottleneck: 2-4                   [-1, 512, 28, 28]         --\n|    |    └─Conv2d: 3-29                 [-1, 128, 56, 56]         32,768\n|    |    └─BatchNorm2d: 3-30            [-1, 128, 56, 56]         256\n|    |    └─ReLU: 3-31                   [-1, 128, 56, 56]         --\n|    |    └─Conv2d: 3-32                 [-1, 128, 28, 28]         147,456\n|    |    └─BatchNorm2d: 3-33            [-1, 128, 28, 28]         256\n|    |    └─ReLU: 3-34                   [-1, 128, 28, 28]         --\n|    |    └─Conv2d: 3-35                 [-1, 512, 28, 28]         65,536\n|    |    └─BatchNorm2d: 3-36            [-1, 512, 28, 28]         1,024\n|    |    └─Sequential: 3-37             [-1, 512, 28, 28]         132,096\n|    |    └─ReLU: 3-38                   [-1, 512, 28, 28]         --\n|    └─Bottleneck: 2-5                   [-1, 512, 28, 28]         --\n|    |    └─Conv2d: 3-39                 [-1, 128, 28, 28]         65,536\n|    |    └─BatchNorm2d: 3-40            [-1, 128, 28, 28]         256\n|    |    └─ReLU: 3-41                   [-1, 128, 28, 28]         --\n|    |    └─Conv2d: 3-42                 [-1, 128, 28, 28]         147,456\n|    |    └─BatchNorm2d: 3-43            [-1, 128, 28, 28]         256\n|    |    └─ReLU: 3-44                   [-1, 128, 28, 28]         --\n|    |    └─Conv2d: 3-45                 [-1, 512, 28, 28]         65,536\n|    |    └─BatchNorm2d: 3-46            [-1, 512, 28, 28]         1,024\n|    |    └─ReLU: 3-47                   [-1, 512, 28, 28]         --\n|    └─Bottleneck: 2-6                   [-1, 512, 28, 28]         --\n|    |    └─Conv2d: 3-48                 [-1, 128, 28, 28]         65,536\n|    |    └─BatchNorm2d: 3-49            [-1, 128, 28, 28]         256\n|    |    └─ReLU: 3-50                   [-1, 128, 28, 28]         --\n|    |    └─Conv2d: 3-51                 [-1, 128, 28, 28]         147,456\n|    |    └─BatchNorm2d: 3-52            [-1, 128, 28, 28]         256\n|    |    └─ReLU: 3-53                   [-1, 128, 28, 28]         --\n|    |    └─Conv2d: 3-54                 [-1, 512, 28, 28]         65,536\n|    |    └─BatchNorm2d: 3-55            [-1, 512, 28, 28]         1,024\n|    |    └─ReLU: 3-56                   [-1, 512, 28, 28]         --\n|    └─Bottleneck: 2-7                   [-1, 512, 28, 28]         --\n|    |    └─Conv2d: 3-57                 [-1, 128, 28, 28]         65,536\n|    |    └─BatchNorm2d: 3-58            [-1, 128, 28, 28]         256\n|    |    └─ReLU: 3-59                   [-1, 128, 28, 28]         --\n|    |    └─Conv2d: 3-60                 [-1, 128, 28, 28]         147,456\n|    |    └─BatchNorm2d: 3-61            [-1, 128, 28, 28]         256\n|    |    └─ReLU: 3-62                   [-1, 128, 28, 28]         --\n|    |    └─Conv2d: 3-63                 [-1, 512, 28, 28]         65,536\n|    |    └─BatchNorm2d: 3-64            [-1, 512, 28, 28]         1,024\n|    |    └─ReLU: 3-65                   [-1, 512, 28, 28]         --\n├─Sequential: 1-7                        [-1, 1024, 14, 14]        --\n|    └─Bottleneck: 2-8                   [-1, 1024, 14, 14]        --\n|    |    └─Conv2d: 3-66                 [-1, 256, 28, 28]         131,072\n|    |    └─BatchNorm2d: 3-67            [-1, 256, 28, 28]         512\n|    |    └─ReLU: 3-68                   [-1, 256, 28, 28]         --\n|    |    └─Conv2d: 3-69                 [-1, 256, 14, 14]         589,824\n|    |    └─BatchNorm2d: 3-70            [-1, 256, 14, 14]         512\n|    |    └─ReLU: 3-71                   [-1, 256, 14, 14]         --\n|    |    └─Conv2d: 3-72                 [-1, 1024, 14, 14]        262,144\n|    |    └─BatchNorm2d: 3-73            [-1, 1024, 14, 14]        2,048\n|    |    └─Sequential: 3-74             [-1, 1024, 14, 14]        526,336\n|    |    └─ReLU: 3-75                   [-1, 1024, 14, 14]        --\n|    └─Bottleneck: 2-9                   [-1, 1024, 14, 14]        --\n|    |    └─Conv2d: 3-76                 [-1, 256, 14, 14]         262,144\n|    |    └─BatchNorm2d: 3-77            [-1, 256, 14, 14]         512\n|    |    └─ReLU: 3-78                   [-1, 256, 14, 14]         --\n|    |    └─Conv2d: 3-79                 [-1, 256, 14, 14]         589,824\n|    |    └─BatchNorm2d: 3-80            [-1, 256, 14, 14]         512\n|    |    └─ReLU: 3-81                   [-1, 256, 14, 14]         --\n|    |    └─Conv2d: 3-82                 [-1, 1024, 14, 14]        262,144\n|    |    └─BatchNorm2d: 3-83            [-1, 1024, 14, 14]        2,048\n|    |    └─ReLU: 3-84                   [-1, 1024, 14, 14]        --\n|    └─Bottleneck: 2-10                  [-1, 1024, 14, 14]        --\n|    |    └─Conv2d: 3-85                 [-1, 256, 14, 14]         262,144\n|    |    └─BatchNorm2d: 3-86            [-1, 256, 14, 14]         512\n|    |    └─ReLU: 3-87                   [-1, 256, 14, 14]         --\n|    |    └─Conv2d: 3-88                 [-1, 256, 14, 14]         589,824\n|    |    └─BatchNorm2d: 3-89            [-1, 256, 14, 14]         512\n|    |    └─ReLU: 3-90                   [-1, 256, 14, 14]         --\n|    |    └─Conv2d: 3-91                 [-1, 1024, 14, 14]        262,144\n|    |    └─BatchNorm2d: 3-92            [-1, 1024, 14, 14]        2,048\n|    |    └─ReLU: 3-93                   [-1, 1024, 14, 14]        --\n|    └─Bottleneck: 2-11                  [-1, 1024, 14, 14]        --\n|    |    └─Conv2d: 3-94                 [-1, 256, 14, 14]         262,144\n|    |    └─BatchNorm2d: 3-95            [-1, 256, 14, 14]         512\n|    |    └─ReLU: 3-96                   [-1, 256, 14, 14]         --\n|    |    └─Conv2d: 3-97                 [-1, 256, 14, 14]         589,824\n|    |    └─BatchNorm2d: 3-98            [-1, 256, 14, 14]         512\n|    |    └─ReLU: 3-99                   [-1, 256, 14, 14]         --\n|    |    └─Conv2d: 3-100                [-1, 1024, 14, 14]        262,144\n|    |    └─BatchNorm2d: 3-101           [-1, 1024, 14, 14]        2,048\n|    |    └─ReLU: 3-102                  [-1, 1024, 14, 14]        --\n|    └─Bottleneck: 2-12                  [-1, 1024, 14, 14]        --\n|    |    └─Conv2d: 3-103                [-1, 256, 14, 14]         262,144\n|    |    └─BatchNorm2d: 3-104           [-1, 256, 14, 14]         512\n|    |    └─ReLU: 3-105                  [-1, 256, 14, 14]         --\n|    |    └─Conv2d: 3-106                [-1, 256, 14, 14]         589,824\n|    |    └─BatchNorm2d: 3-107           [-1, 256, 14, 14]         512\n|    |    └─ReLU: 3-108                  [-1, 256, 14, 14]         --\n|    |    └─Conv2d: 3-109                [-1, 1024, 14, 14]        262,144\n|    |    └─BatchNorm2d: 3-110           [-1, 1024, 14, 14]        2,048\n|    |    └─ReLU: 3-111                  [-1, 1024, 14, 14]        --\n|    └─Bottleneck: 2-13                  [-1, 1024, 14, 14]        --\n|    |    └─Conv2d: 3-112                [-1, 256, 14, 14]         262,144\n|    |    └─BatchNorm2d: 3-113           [-1, 256, 14, 14]         512\n|    |    └─ReLU: 3-114                  [-1, 256, 14, 14]         --\n|    |    └─Conv2d: 3-115                [-1, 256, 14, 14]         589,824\n|    |    └─BatchNorm2d: 3-116           [-1, 256, 14, 14]         512\n|    |    └─ReLU: 3-117                  [-1, 256, 14, 14]         --\n|    |    └─Conv2d: 3-118                [-1, 1024, 14, 14]        262,144\n|    |    └─BatchNorm2d: 3-119           [-1, 1024, 14, 14]        2,048\n|    |    └─ReLU: 3-120                  [-1, 1024, 14, 14]        --\n├─Sequential: 1-8                        [-1, 2048, 7, 7]          --\n|    └─Bottleneck: 2-14                  [-1, 2048, 7, 7]          --\n|    |    └─Conv2d: 3-121                [-1, 512, 14, 14]         524,288\n|    |    └─BatchNorm2d: 3-122           [-1, 512, 14, 14]         1,024\n|    |    └─ReLU: 3-123                  [-1, 512, 14, 14]         --\n|    |    └─Conv2d: 3-124                [-1, 512, 7, 7]           2,359,296\n|    |    └─BatchNorm2d: 3-125           [-1, 512, 7, 7]           1,024\n|    |    └─ReLU: 3-126                  [-1, 512, 7, 7]           --\n|    |    └─Conv2d: 3-127                [-1, 2048, 7, 7]          1,048,576\n|    |    └─BatchNorm2d: 3-128           [-1, 2048, 7, 7]          4,096\n|    |    └─Sequential: 3-129            [-1, 2048, 7, 7]          2,101,248\n|    |    └─ReLU: 3-130                  [-1, 2048, 7, 7]          --\n|    └─Bottleneck: 2-15                  [-1, 2048, 7, 7]          --\n|    |    └─Conv2d: 3-131                [-1, 512, 7, 7]           1,048,576\n|    |    └─BatchNorm2d: 3-132           [-1, 512, 7, 7]           1,024\n|    |    └─ReLU: 3-133                  [-1, 512, 7, 7]           --\n|    |    └─Conv2d: 3-134                [-1, 512, 7, 7]           2,359,296\n|    |    └─BatchNorm2d: 3-135           [-1, 512, 7, 7]           1,024\n|    |    └─ReLU: 3-136                  [-1, 512, 7, 7]           --\n|    |    └─Conv2d: 3-137                [-1, 2048, 7, 7]          1,048,576\n|    |    └─BatchNorm2d: 3-138           [-1, 2048, 7, 7]          4,096\n|    |    └─ReLU: 3-139                  [-1, 2048, 7, 7]          --\n|    └─Bottleneck: 2-16                  [-1, 2048, 7, 7]          --\n|    |    └─Conv2d: 3-140                [-1, 512, 7, 7]           1,048,576\n|    |    └─BatchNorm2d: 3-141           [-1, 512, 7, 7]           1,024\n|    |    └─ReLU: 3-142                  [-1, 512, 7, 7]           --\n|    |    └─Conv2d: 3-143                [-1, 512, 7, 7]           2,359,296\n|    |    └─BatchNorm2d: 3-144           [-1, 512, 7, 7]           1,024\n|    |    └─ReLU: 3-145                  [-1, 512, 7, 7]           --\n|    |    └─Conv2d: 3-146                [-1, 2048, 7, 7]          1,048,576\n|    |    └─BatchNorm2d: 3-147           [-1, 2048, 7, 7]          4,096\n|    |    └─ReLU: 3-148                  [-1, 2048, 7, 7]          --\n├─AdaptiveAvgPool2d: 1-9                 [-1, 2048, 1, 1]          --\n├─Linear: 1-10                           [-1, 1000]                2,049,000\n==========================================================================================\nTotal params: 25,557,032\nTrainable params: 25,557,032\nNon-trainable params: 0\nTotal mult-adds (G): 4.14\n==========================================================================================\nInput size (MB): 0.57\nForward/backward pass size (MB): 169.59\nParams size (MB): 97.49\nEstimated Total S
…
08041Z","shell.execute_reply":"2024-12-04T19:51:53.154608Z"},"collapsed":true,"jupyter":{"outputs_hidden":true}},"outputs":[{"name":"stdout","text":"==========================================================================================\nLayer (type:depth-idx)                   Output Shape              Param #\n==========================================================================================\n├─Conv2d: 1-1                            [-1, 64, 112, 112]        (9,408)\n├─BatchNorm2d: 1-2                       [-1, 64, 112, 112]        (128)\n├─ReLU: 1-3                              [-1, 64, 112, 112]        --\n├─MaxPool2d: 1-4                         [-1, 64, 56, 56]          --\n├─Sequential: 1-5                        [-1, 256, 56, 56]         --\n|    └─Bottleneck: 2-1                   [-1, 256, 56, 56]         --\n|    |    └─Conv2d: 3-1                  [-1, 64, 56, 56]          (4,096)\n|    |    └─BatchNorm2d: 3-2             [-1, 64, 56, 56]          (128)\n|    |    └─ReLU: 3-3                    [-1, 64, 56, 56]          --\n|    |    └─Conv2d: 3-4                  [-1, 64, 56, 56]          (36,864)\n|    |    └─BatchNorm2d: 3-5             [-1, 64, 56, 56]          (128)\n|    |    └─ReLU: 3-6                    [-1, 64, 56, 56]          --\n|    |    └─Conv2d: 3-7                  [-1, 256, 56, 56]         (16,384)\n|    |    └─BatchNorm2d: 3-8             [-1, 256, 56, 56]         (512)\n|    |    └─Sequential: 3-9              [-1, 256, 56, 56]         (16,896)\n|    |    └─ReLU: 3-10                   [-1, 256, 56, 56]         --\n|    └─Bottleneck: 2-2                   [-1, 256, 56, 56]         --\n|    |    └─Conv2d: 3-11                 [-1, 64, 56, 56]          (16,384)\n|    |    └─BatchNorm2d: 3-12            [-1, 64, 56, 56]          (128)\n|    |    └─ReLU: 3-13                   [-1, 64, 56, 56]          --\n|    |    └─Conv2d: 3-14                 [-1, 64, 56, 56]          (36,864)\n|    |    └─BatchNorm2d: 3-15            [-1, 64, 56, 56]          (128)\n|    |    └─ReLU: 3-16                   [-1, 64, 56, 56]          --\n|    |    └─Conv2d: 3-17                 [-1, 256, 56, 56]         (16,384)\n|    |    └─BatchNorm2d: 3-18            [-1, 256, 56, 56]         (512)\n|    |    └─ReLU: 3-19                   [-1, 256, 56, 56]         --\n|    └─Bottleneck: 2-3                   [-1, 256, 56, 56]         --\n|    |    └─Conv2d: 3-20                 [-1, 64, 56, 56]          (16,384)\n|    |    └─BatchNorm2d: 3-21            [-1, 64, 56, 56]          (128)\n|    |    └─ReLU: 3-22                   [-1, 64, 56, 56]          --\n|    |    └─Conv2d: 3-23                 [-1, 64, 56, 56]          (36,864)\n|    |    └─BatchNorm2d: 3-24            [-1, 64, 56, 56]          (128)\n|    |    └─ReLU: 3-25                   [-1, 64, 56, 56]          --\n|    |    └─Conv2d: 3-26                 [-1, 256, 56, 56]         (16,384)\n|    |    └─BatchNorm2d: 3-27            [-1, 256, 56, 56]         (512)\n|    |    └─ReLU: 3-28                   [-1, 256, 56, 56]         --\n├─Sequential: 1-6                        [-1, 512, 28, 28]         --\n|    └─Bottleneck: 2-4                   [-1, 512, 28, 28]         --\n|    |    └─Conv2d: 3-29                 [-1, 128, 56, 56]         (32,768)\n|    |    └─BatchNorm2d: 3-30            [-1, 128, 56, 56]         (256)\n|    |    └─ReLU: 3-31                   [-1, 128, 56, 56]         --\n|    |    └─Conv2d: 3-32                 [-1, 128, 28, 28]         (147,456)\n|    |    └─BatchNorm2d: 3-33            [-1, 128, 28, 28]         (256)\n|    |    └─ReLU: 3-34                   [-1, 128, 28, 28]         --\n|    |    └─Conv2d: 3-35                 [-1, 512, 28, 28]         (65,536)\n|    |    └─BatchNorm2d: 3-36            [-1, 512, 28, 28]         (1,024)\n|    |    └─Sequential: 3-37             [-1, 512, 28, 28]         (132,096)\n|    |    └─ReLU: 3-38                   [-1, 512, 28, 28]         --\n|    └─Bottleneck: 2-5                   [-1, 512, 28, 28]         --\n|    |    └─Conv2d: 3-39                 [-1, 128, 28, 28]         (65,536)\n|    |    └─BatchNorm2d: 3-40            [-1, 128, 28, 28]         (256)\n|    |    └─ReLU: 3-41                   [-1, 128, 28, 28]         --\n|    |    └─Conv2d: 3-42                 [-1, 128, 28, 28]         (147,456)\n|    |    └─BatchNorm2d: 3-43            [-1, 128, 28, 28]         (256)\n|    |    └─ReLU: 3-44                   [-1, 128, 28, 28]         --\n|    |    └─Conv2d: 3-45                 [-1, 512, 28, 28]         (65,536)\n|    |    └─BatchNorm2d: 3-46            [-1, 512, 28, 28]         (1,024)\n|    |    └─ReLU: 3-47                   [-1, 512, 28, 28]         --\n|    └─Bottleneck: 2-6                   [-1, 512, 28, 28]         --\n|    |    └─Conv2d: 3-48                 [-1, 128, 28, 28]         (65,536)\n|    |    └─BatchNorm2d: 3-49            [-1, 128, 28, 28]         (256)\n|    |    └─ReLU: 3-50                   [-1, 128, 28, 28]         --\n|    |    └─Conv2d: 3-51                 [-1, 128, 28, 28]         (147,456)\n|    |    └─BatchNorm2d: 3-52            [-1, 128, 28, 28]         (256)\n|    |    └─ReLU: 3-53                   [-1, 128, 28, 28]         --\n|    |    └─Conv2d: 3-54                 [-1, 512, 28, 28]         (65,536)\n|    |    └─BatchNorm2d: 3-55            [-1, 512, 28, 28]         (1,024)\n|    |    └─ReLU: 3-56                   [-1, 512, 28, 28]         --\n|    └─Bottleneck: 2-7                   [-1, 512, 28, 28]         --\n|    |    └─Conv2d: 3-57                 [-1, 128, 28, 28]         (65,536)\n|    |    └─BatchNorm2d: 3-58            [-1, 128, 28, 28]         (256)\n|    |    └─ReLU: 3-59                   [-1, 128, 28, 28]         --\n|    |    └─Conv2d: 3-60                 [-1, 128, 28, 28]         (147,456)\n|    |    └─BatchNorm2d: 3-61            [-1, 128, 28, 28]         (256)\n|    |    └─ReLU: 3-62                   [-1, 128, 28, 28]         --\n|    |    └─Conv2d: 3-63                 [-1, 512, 28, 28]         (65,536)\n|    |    └─BatchNorm2d: 3-64            [-1, 512, 28, 28]         (1,024)\n|    |    └─ReLU: 3-65                   [-1, 512, 28, 28]         --\n├─Sequential: 1-7                        [-1, 1024, 14, 14]        --\n|    └─Bottleneck: 2-8                   [-1, 1024, 14, 14]        --\n|    |    └─Conv2d: 3-66                 [-1, 256, 28, 28]         (131,072)\n|    |    └─BatchNorm2d: 3-67            [-1, 256, 28, 28]         (512)\n|    |    └─ReLU: 3-68                   [-1, 256, 28, 28]         --\n|    |    └─Conv2d: 3-69                 [-1, 256, 14, 14]         (589,824)\n|    |    └─BatchNorm2d: 3-70            [-1, 256, 14, 14]         (512)\n|    |    └─ReLU: 3-71                   [-1, 256, 14, 14]         --\n|    |    └─Conv2d: 3-72                 [-1, 1024, 14, 14]        (262,144)\n|    |    └─BatchNorm2d: 3-73            [-1, 1024, 14, 14]        (2,048)\n|    |    └─Sequential: 3-74             [-1, 1024, 14, 14]        (526,336)\n|    |    └─ReLU: 3-75                   [-1, 1024, 14, 14]        --\n|    └─Bottleneck: 2-9                   [-1, 1024, 14, 14]        --\n|    |    └─Conv2d: 3-76                 [-1, 256, 14, 14]         (262,144)\n|    |    └─BatchNorm2d: 3-77            [-1, 256, 14, 14]         (512)\n|    |    └─ReLU: 3-78                   [-1, 256, 14, 14]         --\n|    |    └─Conv2d: 3-79                 [-1, 256, 14, 14]         (589,824)\n|    |    └─BatchNorm2d: 3-80            [-1, 256, 14, 14]         (512)\n|    |    └─ReLU: 3-81                   [-1, 256, 14, 14]         --\n|    |    └─Conv2d: 3-82                 [-1, 1024, 14, 14]        (262,144)\n|    |    └─BatchNorm2d: 3-83            [-1, 1024, 14, 14]        (2,048)\n|    |    └─ReLU: 3-84                   [-1, 1024, 14, 14]        --\n|    └─Bottleneck: 2-10                  [-1, 1024, 14, 14]        --\n|    |    └─Conv2d: 3-85                 [-1, 256, 14, 14]         (262,144)\n|    |    └─BatchNorm2d: 3-86            [-1, 256, 14, 14]         (512)\n|    |    └─ReLU: 3-87                   [-1, 256, 14, 14]         --\n|    |    └─Conv2d: 3-88                 [-1, 256, 14, 14]         (589,824)\n|    |    └─BatchNorm2d: 3-89            [-1, 256, 14, 14]         (512)\n|    |    └─ReLU: 3-90                   [-1, 256, 14, 14]         --\n|    |    └─Conv2d: 3-91                 [-1, 1024, 14, 14]        (262,144)\n|    |    └─BatchNorm2d: 3-92            [-1, 1024, 14, 14]        (2,048)\n|    |    └─ReLU: 3-93                   [-1, 1024, 14, 14]        --\n|    └─Bottleneck: 2-11                  [-1, 1024, 14, 14]        --\n|    |    └─Conv2d: 3-94                 [-1, 256, 14, 14]         (262,144)\n|    |    └─BatchNorm2d: 3-95            [-1, 256, 14, 14]         (512)\n|    |    └─ReLU: 3-96                   [-1, 256, 14, 14]         --\n|    |    └─Conv2d: 3-97                 [-1, 256, 14, 14]         (589,824)\n|    |    └─BatchNorm2d: 3-98            [-1, 256, 14, 14]         (512)\n|    |    └─ReLU: 3-99                   [-1, 256, 14, 14]         --\n|    |    └─Conv2d: 3-100                [-1, 1024, 14, 14]        (262,144)\n|    |    └─BatchNorm2d: 3-101           [-1, 1024, 14, 14]        (2,048)\n|    |    └─ReLU: 3-102                  [-1, 1024, 14, 14]        --\n|    └─Bottleneck: 2-12                  [-1, 1024, 14, 14]        --\n|    |    └─Conv2d: 3-103                [-1, 256, 14, 14]         (262,144)\n|    |    └─BatchNorm2d: 3-104           [-1, 256, 14, 14]         (512)\n|    |    └─ReLU: 3-105                  [-1, 256, 14, 14]         --\n|    |    └─Conv2d: 3-106                [-1, 256, 14, 14]         (589,824)\n|    |    └─BatchNorm2d: 3-107           [-1, 256, 14, 14]         (512)\n|    |    └─ReLU: 3-108                  [-1, 256, 14, 14]         --\n|    |    └─Conv2d: 3-109                [-1, 1024, 14, 14]        (262,144)\n|    |    └─BatchNorm2d: 3-110           [-1, 1024, 14, 14]        (2,048)\n|    |    └─ReLU: 3-111                  [-1, 1024, 14, 14]        --\n|    └─Bottleneck: 2-13                  [-1, 1024, 14, 14]        --\n|    |    └─Conv2d: 3-112                [-1, 256, 14, 14]         (262,144)\n|    |    └─BatchNorm2d: 3-113           [-1, 256, 14, 14]         (512)\n|    |    └─ReLU: 3-114                  [-1, 256, 14, 14]         --\n|    |    └─Conv2d: 3-115                [-1, 256, 14, 14]         (589,824)\n|    |    └─BatchNorm2d: 3-116           [-1, 256, 14, 14]         (512)\n|    |    └─ReLU: 3-117                  [-1, 256, 14, 14]         --\n|    |    └─Conv2d: 3-118                [-1, 1024, 14, 14]        (262,144)\n|    |    └─BatchNorm2d: 3-119           [-1, 1024, 14, 14]        (2,048)\n|    |    └─ReLU: 3-120                  [-1, 1024, 14, 14]        --\n├─Sequential: 1-8                        [-1, 2048, 7, 7]          --\n|    └─Bottleneck: 2-14                  [-1, 2048, 7, 7]          --\n|    |    └─Conv2d: 3-121                [-1, 512, 14, 14]         (524,288)\n|    |    └─BatchNorm2d: 3-122           [-1, 512, 14, 14]         (1,024)\n|    |    └─ReLU: 3-123                  [-1, 512, 14, 14]         --\n|    |    └─Conv2d: 3-124                [-1, 512, 7, 7]           (2,359,296)\n|    |    └─BatchNorm2d: 3-125           [-1, 512, 7, 7]           (1,024)\n|    |    └─ReLU: 3-126                  [-1, 512, 7, 7]           --\n|    |    └─Conv2d: 3-127                [-1, 2048, 7, 7]          (1,048,576)\n|    |    └─BatchNorm2d: 3-128           [-1, 2048, 7, 7]          (4,096)\n|    |    └─Sequential: 3-129            [-1, 2048, 7, 7]          (2,101,248)\n|    |    └─ReLU: 3-130                  [-1, 2048, 7, 7]          --\n|    └─Bottleneck: 2-15                  [-1, 2048, 7, 7]          --\n|    |    └─Conv2d: 3-131                [-1, 512, 7, 7]           (1,048,576)\n|    |    └─BatchNorm2d: 3-132           [-1, 512, 7, 7]           (1,024)\n|    |    └─ReLU: 3-133                  [-1, 512, 7, 7]           --\n|    |    └─Conv2d: 3-134                [-1, 512, 7, 7]           (2,359,296)\n|    |    └─BatchNorm2d: 3-135           [-1, 512, 7, 7]           (1,024)\n|    |    └─ReLU: 3-136                  [-1, 512, 7, 7]           --\n|    |    └─Conv2d: 3-137                [-1, 2048, 7, 7]          (1,048,576)\n|    |    └─BatchNorm2d: 3-138           [-1, 2048, 7, 7]          (4,096)\n|    |    └─ReLU: 3-139                  [-1, 2048, 7, 7]          --\n|    └─Bottleneck: 2-16                  [-1, 2048, 7, 7]          --\n|    |    └─Conv2d: 3-140                [-1, 512, 7, 7]           (1,048,576)\n|    |    └─BatchNorm2d: 3-141           [-1, 512, 7, 7]           (1,024)\n|    |    └─ReLU: 3-142                  [-1, 512, 7, 7]           --\n|    |    └─Conv2d: 3-143                [-1, 512, 7, 7]           (2,359,296)\n|    |    └─BatchNorm2d: 3-144           [-1, 512, 7, 7]           (1,024)\n|    |    └─ReLU: 3-145                  [-1, 512, 7, 7]           --\n|    |    └─Conv2d: 3-146                [-1, 2048, 7, 7]          (1,048,576)\n|    |    └─BatchNorm2d: 3-147           [-1, 2048, 7, 7]          (4,096)\n|    |    └─ReLU: 3-148                  [-1, 2048, 7, 7]          --\n├─AdaptiveAvgPool2d: 1-9                 [-1, 2048, 1, 1]          --\n├─Flatten: 1-10                          [-1, 2048]                --\n==========================================================================================\nTotal params: 23,508,032\nTrainable params: 0\nNon-trainable params: 23,508,032\nTotal mult-adds (G): 4.14\n==========================================================================================\nInput size (MB): 0.57\nForward/backward pass size (MB): 169.59\nParams size (MB): 89.68\nEstimated Total S
…
62389Z","shell.execute_reply":"2024-12-04T19:51:53.212925Z"},"collapsed":true,"jupyter":{"outputs_hidden":true}},"outputs":[{"name":"stdout","text":"==========================================================================================\nLayer (type:depth-idx)                   Output Shape              Param #\n==========================================================================================\n├─Conv2d: 1-1                            [-1, 64, 112, 112]        (9,408)\n├─BatchNorm2d: 1-2                       [-1, 64, 112, 112]        (128)\n├─ReLU: 1-3                              [-1, 64, 112, 112]        --\n├─MaxPool2d: 1-4                         [-1, 64, 56, 56]          --\n├─Sequential: 1-5                        [-1, 256, 56, 56]         --\n|    └─Bottleneck: 2-1                   [-1, 256, 56, 56]         --\n|    |    └─Conv2d: 3-1                  [-1, 64, 56, 56]          (4,096)\n|    |    └─BatchNorm2d: 3-2             [-1, 64, 56, 56]          (128)\n|    |    └─ReLU: 3-3                    [-1, 64, 56, 56]          --\n|    |    └─Conv2d: 3-4                  [-1, 64, 56, 56]          (36,864)\n|    |    └─BatchNorm2d: 3-5             [-1, 64, 56, 56]          (128)\n|    |    └─ReLU: 3-6                    [-1, 64, 56, 56]          --\n|    |    └─Conv2d: 3-7                  [-1, 256, 56, 56]         (16,384)\n|    |    └─BatchNorm2d: 3-8             [-1, 256, 56, 56]         (512)\n|    |    └─Sequential: 3-9              [-1, 256, 56, 56]         (16,896)\n|    |    └─ReLU: 3-10                   [-1, 256, 56, 56]         --\n|    └─Bottleneck: 2-2                   [-1, 256, 56, 56]         --\n|    |    └─Conv2d: 3-11                 [-1, 64, 56, 56]          (16,384)\n|    |    └─BatchNorm2d: 3-12            [-1, 64, 56, 56]          (128)\n|    |    └─ReLU: 3-13                   [-1, 64, 56, 56]          --\n|    |    └─Conv2d: 3-14                 [-1, 64, 56, 56]          (36,864)\n|    |    └─BatchNorm2d: 3-15            [-1, 64, 56, 56]          (128)\n|    |    └─ReLU: 3-16                   [-1, 64, 56, 56]          --\n|    |    └─Conv2d: 3-17                 [-1, 256, 56, 56]         (16,384)\n|    |    └─BatchNorm2d: 3-18            [-1, 256, 56, 56]         (512)\n|    |    └─ReLU: 3-19                   [-1, 256, 56, 56]         --\n|    └─Bottleneck: 2-3                   [-1, 256, 56, 56]         --\n|    |    └─Conv2d: 3-20                 [-1, 64, 56, 56]          (16,384)\n|    |    └─BatchNorm2d: 3-21            [-1, 64, 56, 56]          (128)\n|    |    └─ReLU: 3-22                   [-1, 64, 56, 56]          --\n|    |    └─Conv2d: 3-23                 [-1, 64, 56, 56]          (36,864)\n|    |    └─BatchNorm2d: 3-24            [-1, 64, 56, 56]          (128)\n|    |    └─ReLU: 3-25                   [-1, 64, 56, 56]          --\n|    |    └─Conv2d: 3-26                 [-1, 256, 56, 56]         (16,384)\n|    |    └─BatchNorm2d: 3-27            [-1, 256, 56, 56]         (512)\n|    |    └─ReLU: 3-28                   [-1, 256, 56, 56]         --\n├─Sequential: 1-6                        [-1, 512, 28, 28]         --\n|    └─Bottleneck: 2-4                   [-1, 512, 28, 28]         --\n|    |    └─Conv2d: 3-29                 [-1, 128, 56, 56]         (32,768)\n|    |    └─BatchNorm2d: 3-30            [-1, 128, 56, 56]         (256)\n|    |    └─ReLU: 3-31                   [-1, 128, 56, 56]         --\n|    |    └─Conv2d: 3-32                 [-1, 128, 28, 28]         (147,456)\n|    |    └─BatchNorm2d: 3-33            [-1, 128, 28, 28]         (256)\n|    |    └─ReLU: 3-34                   [-1, 128, 28, 28]         --\n|    |    └─Conv2d: 3-35                 [-1, 512, 28, 28]         (65,536)\n|    |    └─BatchNorm2d: 3-36            [-1, 512, 28, 28]         (1,024)\n|    |    └─Sequential: 3-37             [-1, 512, 28, 28]         (132,096)\n|    |    └─ReLU: 3-38                   [-1, 512, 28, 28]         --\n|    └─Bottleneck: 2-5                   [-1, 512, 28, 28]         --\n|    |    └─Conv2d: 3-39                 [-1, 128, 28, 28]         (65,536)\n|    |    └─BatchNorm2d: 3-40            [-1, 128, 28, 28]         (256)\n|    |    └─ReLU: 3-41                   [-1, 128, 28, 28]         --\n|    |    └─Conv2d: 3-42                 [-1, 128, 28, 28]         (147,456)\n|    |    └─BatchNorm2d: 3-43            [-1, 128, 28, 28]         (256)\n|    |    └─ReLU: 3-44                   [-1, 128, 28, 28]         --\n|    |    └─Conv2d: 3-45                 [-1, 512, 28, 28]         (65,536)\n|    |    └─BatchNorm2d: 3-46            [-1, 512, 28, 28]         (1,024)\n|    |    └─ReLU: 3-47                   [-1, 512, 28, 28]         --\n|    └─Bottleneck: 2-6                   [-1, 512, 28, 28]         --\n|    |    └─Conv2d: 3-48                 [-1, 128, 28, 28]         (65,536)\n|    |    └─BatchNorm2d: 3-49            [-1, 128, 28, 28]         (256)\n|    |    └─ReLU: 3-50                   [-1, 128, 28, 28]         --\n|    |    └─Conv2d: 3-51                 [-1, 128, 28, 28]         (147,456)\n|    |    └─BatchNorm2d: 3-52            [-1, 128, 28, 28]         (256)\n|    |    └─ReLU: 3-53                   [-1, 128, 28, 28]         --\n|    |    └─Conv2d: 3-54                 [-1, 512, 28, 28]         (65,536)\n|    |    └─BatchNorm2d: 3-55            [-1, 512, 28, 28]         (1,024)\n|    |    └─ReLU: 3-56                   [-1, 512, 28, 28]         --\n|    └─Bottleneck: 2-7                   [-1, 512, 28, 28]         --\n|    |    └─Conv2d: 3-57                 [-1, 128, 28, 28]         (65,536)\n|    |    └─BatchNorm2d: 3-58            [-1, 128, 28, 28]         (256)\n|    |    └─ReLU: 3-59                   [-1, 128, 28, 28]         --\n|    |    └─Conv2d: 3-60                 [-1, 128, 28, 28]         (147,456)\n|    |    └─BatchNorm2d: 3-61            [-1, 128, 28, 28]         (256)\n|    |    └─ReLU: 3-62                   [-1, 128, 28, 28]         --\n|    |    └─Conv2d: 3-63                 [-1, 512, 28, 28]         (65,536)\n|    |    └─BatchNorm2d: 3-64            [-1, 512, 28, 28]         (1,024)\n|    |    └─ReLU: 3-65                   [-1, 512, 28, 28]         --\n├─Sequential: 1-7                        [-1, 1024, 14, 14]        --\n|    └─Bottleneck: 2-8                   [-1, 1024, 14, 14]        --\n|    |    └─Conv2d: 3-66                 [-1, 256, 28, 28]         (131,072)\n|    |    └─BatchNorm2d: 3-67            [-1, 256, 28, 28]         (512)\n|    |    └─ReLU: 3-68                   [-1, 256, 28, 28]         --\n|    |    └─Conv2d: 3-69                 [-1, 256, 14, 14]         (589,824)\n|    |    └─BatchNorm2d: 3-70            [-1, 256, 14, 14]         (512)\n|    |    └─ReLU: 3-71                   [-1, 256, 14, 14]         --\n|    |    └─Conv2d: 3-72                 [-1, 1024, 14, 14]        (262,144)\n|    |    └─BatchNorm2d: 3-73            [-1, 1024, 14, 14]        (2,048)\n|    |    └─Sequential: 3-74             [-1, 1024, 14, 14]        (526,336)\n|    |    └─ReLU: 3-75                   [-1, 1024, 14, 14]        --\n|    └─Bottleneck: 2-9                   [-1, 1024, 14, 14]        --\n|    |    └─Conv2d: 3-76                 [-1, 256, 14, 14]         (262,144)\n|    |    └─BatchNorm2d: 3-77            [-1, 256, 14, 14]         (512)\n|    |    └─ReLU: 3-78                   [-1, 256, 14, 14]         --\n|    |    └─Conv2d: 3-79                 [-1, 256, 14, 14]         (589,824)\n|    |    └─BatchNorm2d: 3-80            [-1, 256, 14, 14]         (512)\n|    |    └─ReLU: 3-81                   [-1, 256, 14, 14]         --\n|    |    └─Conv2d: 3-82                 [-1, 1024, 14, 14]        (262,144)\n|    |    └─BatchNorm2d: 3-83            [-1, 1024, 14, 14]        (2,048)\n|    |    └─ReLU: 3-84                   [-1, 1024, 14, 14]        --\n|    └─Bottleneck: 2-10                  [-1, 1024, 14, 14]        --\n|    |    └─Conv2d: 3-85                 [-1, 256, 14, 14]         (262,144)\n|    |    └─BatchNorm2d: 3-86            [-1, 256, 14, 14]         (512)\n|    |    └─ReLU: 3-87                   [-1, 256, 14, 14]         --\n|    |    └─Conv2d: 3-88                 [-1, 256, 14, 14]         (589,824)\n|    |    └─BatchNorm2d: 3-89            [-1, 256, 14, 14]         (512)\n|    |    └─ReLU: 3-90                   [-1, 256, 14, 14]         --\n|    |    └─Conv2d: 3-91                 [-1, 1024, 14, 14]        (262,144)\n|    |    └─BatchNorm2d: 3-92            [-1, 1024, 14, 14]        (2,048)\n|    |    └─ReLU: 3-93                   [-1, 1024, 14, 14]        --\n|    └─Bottleneck: 2-11                  [-1, 1024, 14, 14]        --\n|    |    └─Conv2d: 3-94                 [-1, 256, 14, 14]         (262,144)\n|    |    └─BatchNorm2d: 3-95            [-1, 256, 14, 14]         (512)\n|    |    └─ReLU: 3-96                   [-1, 256, 14, 14]         --\n|    |    └─Conv2d: 3-97                 [-1, 256, 14, 14]         (589,824)\n|    |    └─BatchNorm2d: 3-98            [-1, 256, 14, 14]         (512)\n|    |    └─ReLU: 3-99                   [-1, 256, 14, 14]         --\n|    |    └─Conv2d: 3-100                [-1, 1024, 14, 14]        (262,144)\n|    |    └─BatchNorm2d: 3-101           [-1, 1024, 14, 14]        (2,048)\n|    |    └─ReLU: 3-102                  [-1, 1024, 14, 14]        --\n|    └─Bottleneck: 2-12                  [-1, 1024, 14, 14]        --\n|    |    └─Conv2d: 3-103                [-1, 256, 14, 14]         (262,144)\n|    |    └─BatchNorm2d: 3-104           [-1, 256, 14, 14]         (512)\n|    |    └─ReLU: 3-105                  [-1, 256, 14, 14]         --\n|    |    └─Conv2d: 3-106                [-1, 256, 14, 14]         (589,824)\n|    |    └─BatchNorm2d: 3-107           [-1, 256, 14, 14]         (512)\n|    |    └─ReLU: 3-108                  [-1, 256, 14, 14]         --\n|    |    └─Conv2d: 3-109                [-1, 1024, 14, 14]        (262,144)\n|    |    └─BatchNorm2d: 3-110           [-1, 1024, 14, 14]        (2,048)\n|    |    └─ReLU: 3-111                  [-1, 1024, 14, 14]        --\n|    └─Bottleneck: 2-13                  [-1, 1024, 14, 14]        --\n|    |    └─Conv2d: 3-112                [-1, 256, 14, 14]         (262,144)\n|    |    └─BatchNorm2d: 3-113           [-1, 256, 14, 14]         (512)\n|    |    └─ReLU: 3-114                  [-1, 256, 14, 14]         --\n|    |    └─Conv2d: 3-115                [-1, 256, 14, 14]         (589,824)\n|    |    └─BatchNorm2d: 3-116           [-1, 256, 14, 14]         (512)\n|    |    └─ReLU: 3-117                  [-1, 256, 14, 14]         --\n|    |    └─Conv2d: 3-118                [-1, 1024, 14, 14]        (262,144)\n|    |    └─BatchNorm2d: 3-119           [-1, 1024, 14, 14]        (2,048)\n|    |    └─ReLU: 3-120                  [-1, 1024, 14, 14]        --\n├─Sequential: 1-8                        [-1, 2048, 7, 7]          --\n|    └─Bottleneck: 2-14                  [-1, 2048, 7, 7]          --\n|    |    └─Conv2d: 3-121                [-1, 512, 14, 14]         (524,288)\n|    |    └─BatchNorm2d: 3-122           [-1, 512, 14, 14]         (1,024)\n|    |    └─ReLU: 3-123                  [-1, 512, 14, 14]         --\n|    |    └─Conv2d: 3-124                [-1, 512, 7, 7]           (2,359,296)\n|    |    └─BatchNorm2d: 3-125           [-1, 512, 7, 7]           (1,024)\n|    |    └─ReLU: 3-126                  [-1, 512, 7, 7]           --\n|    |    └─Conv2d: 3-127                [-1, 2048, 7, 7]          (1,048,576)\n|    |    └─BatchNorm2d: 3-128           [-1, 2048, 7, 7]          (4,096)\n|    |    └─Sequential: 3-129            [-1, 2048, 7, 7]          (2,101,248)\n|    |    └─ReLU: 3-130                  [-1, 2048, 7, 7]          --\n|    └─Bottleneck: 2-15                  [-1, 2048, 7, 7]          --\n|    |    └─Conv2d: 3-131                [-1, 512, 7, 7]           (1,048,576)\n|    |    └─BatchNorm2d: 3-132           [-1, 512, 7, 7]           (1,024)\n|    |    └─ReLU: 3-133                  [-1, 512, 7, 7]           --\n|    |    └─Conv2d: 3-134                [-1, 512, 7, 7]           (2,359,296)\n|    |    └─BatchNorm2d: 3-135           [-1, 512, 7, 7]           (1,024)\n|    |    └─ReLU: 3-136                  [-1, 512, 7, 7]           --\n|    |    └─Conv2d: 3-137                [-1, 2048, 7, 7]          (1,048,576)\n|    |    └─BatchNorm2d: 3-138           [-1, 2048, 7, 7]          (4,096)\n|    |    └─ReLU: 3-139                  [-1, 2048, 7, 7]          --\n|    └─Bottleneck: 2-16                  [-1, 2048, 7, 7]          --\n|    |    └─Conv2d: 3-140                [-1, 512, 7, 7]           1,048,576\n|    |    └─BatchNorm2d: 3-141           [-1, 512, 7, 7]           1,024\n|    |    └─ReLU: 3-142                  [-1, 512, 7, 7]           --\n|    |    └─Conv2d: 3-143                [-1, 512, 7, 7]           2,359,296\n|    |    └─BatchNorm2d: 3-144           [-1, 512, 7, 7]           1,024\n|    |    └─ReLU: 3-145                  [-1, 512, 7, 7]           --\n|    |    └─Conv2d: 3-146                [-1, 2048, 7, 7]          1,048,576\n|    |    └─BatchNorm2d: 3-147           [-1, 2048, 7, 7]          4,096\n|    |    └─ReLU: 3-148                  [-1, 2048, 7, 7]          --\n├─AdaptiveAvgPool2d: 1-9                 [-1, 2048, 1, 1]          --\n├─Flatten: 1-10                          [-1, 2048]                --\n==========================================================================================\nTotal params: 23,508,032\nTrainable params: 4,462,592\nNon-trainable params: 19,045,440\nTotal mult-adds (G): 4.14\n==========================================================================================\nInput size (MB): 0.57\nForward/backward pass size (MB): 169.59\nParams size (MB): 89.68\nEstimated
…
