…
pub.status.busy":"2024-12-06T22:11:49.765502Z","iopub.execute_input":"2024-12-06T22:11:49.765736Z","iopub.status.idle":"2024-12-06T22:11:49.849710Z","shell.execute_reply.started":"2024-12-06T22:11:49.765712Z","shell.execute_reply":"2024-12-06T22:11:49.848889Z"}},"outputs":[{"name":"stdout","text":"==========================================================================================\nLayer (type:depth-idx)                   Output Shape              Param #\n==========================================================================================\n├─Sequential: 1-1                        [-1, 1024, 7, 7]          --\n|    └─Conv2d: 2-1                       [-1, 64, 112, 122]        9,408\n|    └─BatchNorm2d: 2-2                  [-1, 64, 112, 122]        128\n|    └─ReLU: 2-3                         [-1, 64, 112, 122]        --\n|    └─MaxPool2d: 2-4                    [-1, 64, 56, 61]          --\n|    └─_DenseBlock: 2-5                  [-1, 256, 56, 61]         --\n|    |    └─_DenseLayer: 3-1             [-1, 32, 56, 61]          45,440\n|    |    └─_DenseLayer: 3-2             [-1, 32, 56, 61]          49,600\n|    |    └─_DenseLayer: 3-3             [-1, 32, 56, 61]          53,760\n|    |    └─_DenseLayer: 3-4             [-1, 32, 56, 61]          57,920\n|    |    └─_DenseLayer: 3-5             [-1, 32, 56, 61]          62,080\n|    |    └─_DenseLayer: 3-6             [-1, 32, 56, 61]          66,240\n|    └─_Transition: 2-6                  [-1, 128, 28, 30]         --\n|    |    └─BatchNorm2d: 3-7             [-1, 256, 56, 61]         512\n|    |    └─ReLU: 3-8                    [-1, 256, 56, 61]         --\n|    |    └─Conv2d: 3-9                  [-1, 128, 56, 61]         32,768\n|    |    └─AvgPool2d: 3-10              [-1, 128, 28, 30]         --\n|    └─_DenseBlock: 2-7                  [-1, 512, 28, 30]         --\n|    |    └─_DenseLayer: 3-11            [-1, 32, 28, 30]          53,760\n|    |    └─_DenseLayer: 3-12            [-1, 32, 28, 30]          57,920\n|    |    └─_DenseLayer: 3-13            [-1, 32, 28, 30]          62,080\n|    |    └─_DenseLayer: 3-14            [-1, 32, 28, 30]          66,240\n|    |    └─_DenseLayer: 3-15            [-1, 32, 28, 30]          70,400\n|    |    └─_DenseLayer: 3-16            [-1, 32, 28, 30]          74,560\n|    |    └─_DenseLayer: 3-17            [-1, 32, 28, 30]          78,720\n|    |    └─_DenseLayer: 3-18            [-1, 32, 28, 30]          82,880\n|    |    └─_DenseLayer: 3-19            [-1, 32, 28, 30]          87,040\n|    |    └─_DenseLayer: 3-20            [-1, 32, 28, 30]          91,200\n|    |    └─_DenseLayer: 3-21            [-1, 32, 28, 30]          95,360\n|    |    └─_DenseLayer: 3-22            [-1, 32, 28, 30]          99,520\n|    └─_Transition: 2-8                  [-1, 256, 14, 15]         --\n|    |    └─BatchNorm2d: 3-23            [-1, 512, 28, 30]         1,024\n|    |    └─ReLU: 3-24                   [-1, 512, 28, 30]         --\n|    |    └─Conv2d: 3-25                 [-1, 256, 28, 30]         131,072\n|    |    └─AvgPool2d: 3-26              [-1, 256, 14, 15]         --\n|    └─_DenseBlock: 2-9                  [-1, 1024, 14, 15]        --\n|    |    └─_DenseLayer: 3-27            [-1, 32, 14, 15]          70,400\n|    |    └─_DenseLayer: 3-28            [-1, 32, 14, 15]          74,560\n|    |    └─_DenseLayer: 3-29            [-1, 32, 14, 15]          78,720\n|    |    └─_DenseLayer: 3-30            [-1, 32, 14, 15]          82,880\n|    |    └─_DenseLayer: 3-31            [-1, 32, 14, 15]          87,040\n|    |    └─_DenseLayer: 3-32            [-1, 32, 14, 15]          91,200\n|    |    └─_DenseLayer: 3-33            [-1, 32, 14, 15]          95,360\n|    |    └─_DenseLayer: 3-34            [-1, 32, 14, 15]          99,520\n|    |    └─_DenseLayer: 3-35            [-1, 32, 14, 15]          103,680\n|    |    └─_DenseLayer: 3-36            [-1, 32, 14, 15]          107,840\n|    |    └─_DenseLayer: 3-37            [-1, 32, 14, 15]          112,000\n|    |    └─_DenseLayer: 3-38            [-1, 32, 14, 15]          116,160\n|    |    └─_DenseLayer: 3-39            [-1, 32, 14, 15]          120,320\n|    |    └─_DenseLayer: 3-40            [-1, 32, 14, 15]          124,480\n|    |    └─_DenseLayer: 3-41            [-1, 32, 14, 15]          128,640\n|    |    └─_DenseLayer: 3-42            [-1, 32, 14, 15]          132,800\n|    |    └─_DenseLayer: 3-43            [-1, 32, 14, 15]          136,960\n|    |    └─_DenseLayer: 3-44            [-1, 32, 14, 15]          141,120\n|    |    └─_DenseLayer: 3-45            [-1, 32, 14, 15]          145,280\n|    |    └─_DenseLayer: 3-46            [-1, 32, 14, 15]          149,440\n|    |    └─_DenseLayer: 3-47            [-1, 32, 14, 15]          153,600\n|    |    └─_DenseLayer: 3-48            [-1, 32, 14, 15]          157,760\n|    |    └─_DenseLayer: 3-49            [-1, 32, 14, 15]          161,920\n|    |    └─_DenseLayer: 3-50            [-1, 32, 14, 15]          166,080\n|    └─_Transition: 2-10                 [-1, 512, 7, 7]           --\n|    |    └─BatchNorm2d: 3-51            [-1, 1024, 14, 15]        2,048\n|    |    └─ReLU: 3-52                   [-1, 1024, 14, 15]        --\n|    |    └─Conv2d: 3-53                 [-1, 512, 14, 15]         524,288\n|    |    └─AvgPool2d: 3-54              [-1, 512, 7, 7]           --\n|    └─_DenseBlock: 2-11                 [-1, 1024, 7, 7]          --\n|    |    └─_DenseLayer: 3-55            [-1, 32, 7, 7]            103,680\n|    |    └─_DenseLayer: 3-56            [-1, 32, 7, 7]            107,840\n|    |    └─_DenseLayer: 3-57            [-1, 32, 7, 7]            112,000\n|    |    └─_DenseLayer: 3-58            [-1, 32, 7, 7]            116,160\n|    |    └─_DenseLayer: 3-59            [-1, 32, 7, 7]            120,320\n|    |    └─_DenseLayer: 3-60            [-1, 32, 7, 7]            124,480\n|    |    └─_DenseLayer: 3-61            [-1, 32, 7, 7]            128,640\n|    |    └─_DenseLayer: 3-62            [-1, 32, 7, 7]            132,800\n|    |    └─_DenseLayer: 3-63            [-1, 32, 7, 7]            136,960\n|    |    └─_DenseLayer: 3-64            [-1, 32, 7, 7]            141,120\n|    |    └─_DenseLayer: 3-65            [-1, 32, 7, 7]            145,280\n|    |    └─_DenseLayer: 3-66            [-1, 32, 7, 7]            149,440\n|    |    └─_DenseLayer: 3-67            [-1, 32, 7, 7]            153,600\n|    |    └─_DenseLayer: 3-68            [-1, 32, 7, 7]            157,760\n|    |    └─_DenseLayer: 3-69            [-1, 32, 7, 7]            161,920\n|    |    └─_DenseLayer: 3-70            [-1, 32, 7, 7]            166,080\n|    └─BatchNorm2d: 2-12                 [-1, 1024, 7, 7]          2,048\n├─Linear: 1-2                            [-1, 1000]                1,025,000\n==========================================================================================\nTotal params: 7,978,856\nTrainable params: 7,978,856\nNon-trainable params: 0\nTotal mult-adds (G): 3.07\n==========================================================================================\nInput size (MB): 0.63\nForward/backward pass size (MB): 185.49\nParams size (MB): 30.44\nEstimated Total Siz
…
pub.status.busy":"2024-12-06T22:11:49.885665Z","iopub.execute_input":"2024-12-06T22:11:49.885910Z","iopub.status.idle":"2024-12-06T22:11:50.173827Z","shell.execute_reply.started":"2024-12-06T22:11:49.885887Z","shell.execute_reply":"2024-12-06T22:11:50.172983Z"}},"outputs":[{"name":"stdout","text":"==========================================================================================\nLayer (type:depth-idx)                   Output Shape              Param #\n==========================================================================================\n├─Sequential: 1-1                        [-1, 1024, 7, 7]          --\n|    └─Conv2d: 2-1                       [-1, 64, 112, 112]        (9,408)\n|    └─BatchNorm2d: 2-2                  [-1, 64, 112, 112]        (128)\n|    └─ReLU: 2-3                         [-1, 64, 112, 112]        --\n|    └─MaxPool2d: 2-4                    [-1, 64, 56, 56]          --\n|    └─_DenseBlock: 2-5                  [-1, 256, 56, 56]         --\n|    |    └─_DenseLayer: 3-1             [-1, 32, 56, 56]          (45,440)\n|    |    └─_DenseLayer: 3-2             [-1, 32, 56, 56]          (49,600)\n|    |    └─_DenseLayer: 3-3             [-1, 32, 56, 56]          (53,760)\n|    |    └─_DenseLayer: 3-4             [-1, 32, 56, 56]          (57,920)\n|    |    └─_DenseLayer: 3-5             [-1, 32, 56, 56]          (62,080)\n|    |    └─_DenseLayer: 3-6             [-1, 32, 56, 56]          (66,240)\n|    └─_Transition: 2-6                  [-1, 128, 28, 28]         --\n|    |    └─BatchNorm2d: 3-7             [-1, 256, 56, 56]         (512)\n|    |    └─ReLU: 3-8                    [-1, 256, 56, 56]         --\n|    |    └─Conv2d: 3-9                  [-1, 128, 56, 56]         (32,768)\n|    |    └─AvgPool2d: 3-10              [-1, 128, 28, 28]         --\n|    └─_DenseBlock: 2-7                  [-1, 512, 28, 28]         --\n|    |    └─_DenseLayer: 3-11            [-1, 32, 28, 28]          (53,760)\n|    |    └─_DenseLayer: 3-12            [-1, 32, 28, 28]          (57,920)\n|    |    └─_DenseLayer: 3-13            [-1, 32, 28, 28]          (62,080)\n|    |    └─_DenseLayer: 3-14            [-1, 32, 28, 28]          (66,240)\n|    |    └─_DenseLayer: 3-15            [-1, 32, 28, 28]          (70,400)\n|    |    └─_
…
